PythonSnake/PythonSnakeIA/model/model.pth (torch, 544424 bytes, 8 tensors)

linear1.weight f4 [256, 11]
0	0x3e5b197d	0.21396442
1	0x3cc56816	0.024097484
2	0xbe55e62c	-0.20888585
3	0x3ddb596c	0.10710415
4	0x3e30426d	0.1721284
5	0x3e02330c	0.12714785
6	0x3e22e5e0	0.15908003
7	0x3e315edc	0.17321342
8	0xbe363088	-0.1779195
9	0x3e0ae43e	0.1356363
10	0x3dcc11d9	0.09964342
11	0x3dc9bb82	0.098502174
12	0x3e5a818e	0.21338484
13	0x3e06f377	0.13178812
14	0x3e157978	0.14597118
15	0xbe6408e7	-0.22269021
16	0x3da517b0	0.08061159
17	0x3e65236e	0.22376797
18	0xbd9cec48	-0.076622546
19	0xbe5da38d	-0.21644421
20	0xbcc8af0e	-0.024497535
21	0xbe9eac7a	-0.30990964
22	0x3d84dad9	0.064870544
23	0xbe19a4a5	-0.15004213
24	0xbd12750f	-0.035756167
25	0x3e40b9e5	0.18820913
26	0x3e4d57ed	0.20053072
27	0x3d4afdc4	0.049558416
28	0xbe6b67d6	-0.22988829
29	0x3e5eef50	0.21770978
30	0x3e08d316	0.13361773
31	0xbc903774	-0.017604567
32	0x3ea8045d	0.3281583
33	0xbd7d471a	-0.061835386
34	0xbe890848	-0.2676413
35	0x3e8630d5	0.2620913
36	0x3e31c1cf	0.17359088
37	0xbd4e12ab	-0.050310772
38	0x3dc9ed47	0.0985971
39	0x3e8ecec1	0.27892116
40	0xbdf78e0b	-0.120876394
41	0x3e39511e	0.1809735
42	0xbca9b7d9	-0.020717548
43	0xbe4ef995	-0.20212395
44	0xbd91310d	-0.07089434
45	0x3e40801e	0.18798873
46	0xbdf2e4bb	-0.11860033
47	0xbddecbd0	-0.10878718
48	0x3d90b4bc	0.07065722
49	0x3e08c584	0.13356596
50	0xbdf29d49	-0.11846406
51	0x3e28589a	0.16440049
52	0xbe2db8b4	-0.1696499
53	0x3d53d493	0.0517164
54	0x3e6ed0ff	0.23321913
55	0xbe6667cb	-0.22500531
56	0x3e12e294	0.14344245
57	0xbe814801	-0.25250247
58	0xbe7d4b4b	-0.24735753
59	0x3d93a1c8	0.07208592
60	0x3d3b8887	0.0457845
61	0x3e838eb6	0.25694817
62	0xbec07632	-0.37590176
63	0xbca7ca6d	-0.020482266
64	0xbe50c9b3	-0.20389442
65	0xbdd2dfda	-0.102966025
66	0xbe8339ea	-0.25630122
67	0x3e17f045	0.1483775
68	0x3e229d3f	0.15880297
69	0x3d863e1c	0.06554815
70	0x3e6e858a	0.23293129
71	0x3d690bd1	0.056896035
72	0x3e05ab39	0.13053598
73	0xbe0dddbb	-0.13854115
74	0xbc70d950	-0.014700249
75	0xbe93f212	-0.28895622
76	0xbdabbdcc	-0.0838581
77	0x3e84d22f	0.25941607
78	0xbe82ef0f	-0.25573012
79	0xbe1473ef	-0.1449735
80	0xbe6c430e	-0.23072454
81	0x3e3576fb	0.17721169
82	0x3c51a809	0.01279641
83	0x3e2ca548	0.16859925
84	0xbd9a7c5f	-0.07543253
85	0xbe46500d	-0.19366474
86	0x3e246ae7	0.16056405
87	0x3dbb52e5	0.0914667
88	0x3e3c1ef4	0.18371183
89	0x3e4d7e5a	0.2006773
90	0x3d492d4a	0.049115457
91	0x3e93465a	0.2876461
92	0xbe85dba4	-0.26144135
93	0xbe45325a	-0.19257489
94	0xbe879618	-0.264817
95	0xbe19b831	-0.1501167
96	0x3db9b3e6	0.09067516
97	0x3e6040bf	0.21899699
98	0x3e92a0e8	0.28638387
99	0xbe370ec8	-0.17876732
100	0xbe251e31	-0.16124798
101	0xbdff9519	-0.1247961
102	0x3e624e7c	0.22100252
103	0x3e430edd	0.19048639
104	0xbe834fe9	-0.25646904
105	0x3e421643	0.18953805
106	0xbd86da7d	-0.06584642
107	0xbd984c4d	-0.07436428
108	0xbe53437f	-0.20631216
109	0xbd6e3e4d	-0.058164883
110	0xbd96e4e5	-0.07367877
111	0xbe9d1257	-0.30678055
112	0x3d71cef7	0.059035268
113	0xbd8e0c29	-0.06935913
114	0xbe135dec	-0.14391297
115	0xbd0b922b	-0.034074944
116	0xbdbb0ada	-0.09132929
117	0xbdf5edd8	-0.12008256
118	0xbd8514a2	-0.06498076
119	0xbce1b55d	-0.027552301
120	0x3dad9eaf	0.08477532
121	0xbeafe7e6	-0.34356612
122	0xbe3809a1	-0.17972423
123	0x3c278fc4	0.0102271475
124	0x3dd4c6d7	0.10389488
125	0x3cce7719	0.025203275
126	0x3d12dbf4	0.035854295
127	0x3d8cacfe	0.06868933
128	0x3d7247b2	0.059150405
129	0xbc0f656c	-0.008752208
130	0x3d372ca7	0.04472032
131	0x3d6c5786	0.057700656
132	0x3d2869f8	0.041116685
133	0x3e64c8d7	0.2234224
134	0xbd8d7c6e	-0.06908499
135	0x3d077c10	0.0330773
136	0xbe21779d	-0.15768285
137	0xbdd7f29e	-0.105443224
138	0xbc34fe20	-0.011046916
139	0xbe707f94	-0.23486167
140	0xbe2916f5	-0.16512664
141	0xbe0397c7	-0.12850867
142	0xbd8c115b	-0.06839248
143	0xbaee4070	-0.0018177163
144	0x3e78c67d	0.24294467
145	0xbd85dfdf	-0.06536841
146	0x3e82074f	0.253962
147	0x3c5d70be	0.013515649
148	0x3e12ce1e	0.1433644
149	0x3e470ccd	0.19438477
150	0xbe078eaa	-0.13238016
151	0x3d9e2a8b	0.07722958
152	0x3e03c294	0.12867194
153	0x3e86a369	0.26296547
154	0xbeadeb3b	-0.3396853
155	0xbc73a4b3	-0.01487081
156	0xbe982763	-0.2971755
157	0xbc8a7f58	-0.016906425
158	0xbd3792c0	-0.044817686
159	0xbd73b301	-0.059496883
160	0x3d6a738e	0.057239108
161	0x3e24a753	0.16079454
162	0x3e46cf28	0.19414961
163	0x3d242c78	0.04008147
164	0xbe26448c	-0.16237086
165	0xbd1ce01d	-0.03829967
166	0x3e9b8000	0.30371094
167	0x3e368648	0.17824662
168	0x3e0e19c1	0.13877012
169	0x3e53e2f2	0.20692042
170	0xbe62d1b4	-0.22150308
171	0x3cbe9695	0.023265162
172	0x3e62385d	0.22091813
173	0x3d9bde4c	0.07610759
174	0xbe3c4ae8	-0.1838795
175	0xbd64c08a	-0.055847682
176	0xbe50d39b	-0.20393221
177	0xbe90bcb9	-0.28268984
178	0xbe12b8e7	-0.14328347
179	0xbe8de0b0	-0.27710485
180	0xbd3cd0cf	-0.046097573
181	0x3e064d88	0.13115513
182	0x3df3395e	0.11876176
183	0x3ea50051	0.32226804
184	0x3e515aad	0.20444746
185	0x3d10df5c	0.035369262
186	0xbdd9fdbb	-0.10644098
187	0xbe8e1d3d	-0.27756682
188	0x3d88f7f8	0.06687921
189	0xbdaaf6dc	-0.08347866
190	0xbe9a6a29	-0.3015912
191	0x3e6a8ee4	0.22906071
192	0x3e0a1dce	0.13487932
193	0x3da48c6c	0.08034596
194	0x3e12ab1b	0.14323084
195	0x3e3e3e36	0.18578419
196	0x3e4c9c21	0.19981433
197	0x3d4e444e	0.05035811
198	0xbea01a57	-0.31270096
199	0x3e8eee4b	0.27916178
200	0x3e01f6c5	0.12691791
201	0x3e53adb0	0.20671725
202	0x3ddf74f3	0.10910978
203	0x3dd4f4fc	0.103982896
204	0x3e229220	0.15876055
205	0x3d67d4ee	0.05659955
206	0x3e066971	0.1312616
207	0x3e936551	0.28788236
208	0x3e8a13ed	0.26968327
209	0xbe247fef	-0.16064428
210	0xbde8c8e0	-0.11366439
211	0xbe11a115	-0.14221604
212	0xbeb3228d	-0.34987298
213	0x3e15f2ec	0.14643449
214	0x3e1ed0ec	0.15509385
215	0x3c243f56	0.010024866
216	0xbe6419c5	-0.22275455
217	0xbd32cd6e	-0.043652944
218	0xbea64c64	-0.32480156
219	0x3dcacf57	0.09902828
220	0xbe361c5d	-0.17784257
221	0xbe49dd48	-0.19713318
222	0xbe3f166f	-0.18660901
223	0x3e8a719c	0.27039802
224	0xbe848a22	-0.25886637
225	0x3e1f6bc0	0.15568447
226	0xbd3eea48	-0.046610147
227	0xbd8e263d	-0.06940887
228	0xbdc680bc	-0.09692523
229	0x3d6f1c64	0.058376685
230	0x3e8c8170	0.27442503
231	0xbe94998b	-0.29023394
232	0x3e9654b5	0.293615
233	0xbdf51a89	-0.11967952
234	0xbe723dd4	-0.23656398
235	0xbe7f2193	-0.24915151
236	0x3e3818c5	0.17978199
237	0x3e432260	0.19056082
238	0xbd29fafc	-0.041499123
239	0xbeafa65c	-0.3430661
240	0x3dd37f1f	0.10326981
241	0x3e817dd7	0.2529132
242	0xbea1779c	-0.31536567
243	0xbe63c0f6	-0.22241578
244	0x3d8ae440	0.067818165
245	0x3e65afe9	0.22430386
246	0x3d9d09cc	0.07667884
247	0x3c80d217	0.015725179
248	0x3e81b190	0.25330782
249	0xbe19a47b	-0.1500415
250	0x3d0286ba	0.031866767
251	0xbe285bc8	-0.16441262
252	0xbdb566fe	-0.08857535
253	0xbe97cb77	-0.2964742
254	0xbe1f7965	-0.15573652
255	0x3e638391	0.22218157

linear1.bias f4 [256]
0	0xbe895252	-0.26820618
1	0xbe38ddb5	-0.18053325
2	0xbd5410a4	-0.051773682
3	0xbe29a284	-0.16565901
4	0x3dc1b6dd	0.094587065
5	0x3eae68f3	0.34064445
6	0x3e099a65	0.13437803
7	0xbe6de833	-0.23233108
8	0xbe19daff	-0.15024947
9	0x3e8bf9fc	0.2733916
10	0xbd858df8	-0.06521219
11	0x3d8bf2ae	0.06833397
12	0xbe6141c1	-0.2199774
13	0xbe0c0d6b	-0.13676994
14	0x3e346bd4	0.17619258
15	0xbdb84b36	-0.0899872
16	0xbdeef288	-0.11667353
17	0xbe14b2d7	-0.14521347
18	0xbe6382c3	-0.2221785
19	0x3e210b26	0.15726909
20	0xbe62f057	-0.22161995
21	0xbcaea0ba	-0.021316875
22	0x3d375b48	0.044764787
23	0xbea48a52	-0.3213678
24	0xbe46b829	-0.19406189
25	0x3ceb74dc	0.028742246
26	0xbe6d35c5	-0.23165043
27	0x3d000df6	0.031263314
28	0x3c027f47	0.007964916
29	0x3d5056fe	0.050864212
30	0xbe3c9602	-0.18416598
31	0xbc683a8e	-0.014174117
32	0xbde44e8d	-0.11147795
33	0xbd311f87	-0.043242957
34	0xbd9b2828	-0.075760186
35	0xbd9efa0f	-0.07762539
36	0x3e213d75	0.157461
37	0x3d691b5b	0.056910854
38	0xbe90a440	-0.28250313
39	0xbd50bd44	-0.050961748
40	0xbdb53ec6	-0.08849864
41	0xbe0b021c	-0.13575023
42	0xbd351a27	-0.044214394
43	0xbdbf04bd	-0.09327076
44	0xbe6cb244	-0.23114878
45	0xbd1729cf	-0.036905106
46	0xbcb8ce8e	-0.02255943
47	0x3ddd6008	0.10809332
48	0xbe8f3a5a	-0.27974206
49	0xbe7a8f39	-0.24468698
50	0xbe708732	-0.23489073
51	0x3db271f9	0.08713145
52	0x3ded5fd3	0.11590543
53	0xbd0ad4db	-0.0338944
54	0xbe555916	-0.20834765
55	0x3d959a6e	0.07304846
56	0x3e984672	0.29741246
57	0xbeb57f10	-0.35448503
58	0xbe67377b	-0.22579758
59	0x3e4df73c	0.20113844
60	0xbe0ca2c9	-0.13733973
61	0xbd9f4142	-0.07776119
62	0xbd95d016	-0.0731508
63	0x3d5ec01a	0.05438242
64	0x3bf871d4	0.0075819287
65	0xbe657b45	-0.22410305
66	0xbd2483ff	-0.040164944
67	0xbd6d9cda	-0.058010913
68	0x3d9cbe3d	0.076534726
69	0xbcf41e7f	-0.029799698
70	0xbe8705cd	-0.26371613
71	0xbe76293d	-0.24039169
72	0x3deddeef	0.11614787
73	0x3dbb54cb	0.09147032
74	0x3e39480f	0.18093894
75	0xbcceac97	-0.025228782
76	0xbe2d9be1	-0.16953994
77	0x3e7830e1	0.24237396
78	0x3d10df96	0.03536948
79	0xbc9ea6b7	-0.019366605
80	0xbda011f1	-0.07815922
81	0x3dead136	0.11465685
82	0xbc9c26f4	-0.019061543
83	0x3dbdf1c5	0.092746295
84	0xbd6739a5	-0.05645146
85	0xbc3aca94	-0.011400837
86	0xbe49b20c	-0.19696826
87	0xbe98bfe0	-0.2983389
88	0x3d918c8e	0.07106887
89	0x3df221f6	0.11822884
90	0x3d37d6f2	0.044882722
91	0x3be4becb	0.006980752
92	0xbe8c5064	-0.27405083
93	0x3d3409ef	0.043954786
94	0xbe37240e	-0.17884848
95	0x3e06663f	0.13124941
96	0xbd89a87b	-0.06721588
97	0xbbaec984	-0.005334081
98	0xbd6cb694	-0.057791308
99	0xbea09a66	-0.31367797
100	0x3e1c685f	0.1527419
101	0x3dd3be4e	0.10339032
102	0x3dbe7e35	0.09301416
103	0xbe1ad1dc	-0.15119117
104	0xbe4b96b2	-0.19881704
105	0xbd8a962e	-0.06766926
106	0x3e2aa44b	0.16664235
107	0xbe2a18bc	-0.16610998
108	0xbe1781a1	-0.14795543
109	0x3de03837	0.10948222
110	0x3d0c30df	0.034226295
111	0x3e7b6741	0.24551107
112	0x3d71c21c	0.059023008
113	0x3b07e5a4	0.0020736242
114	0x3e2faead	0.17156477
115	0xbda839cf	-0.08214151
116	0x3d57153a	0.052510478
117	0x3d814c1d	0.063133456
118	0x3d3e5429	0.04646698
119	0xbcf39dc1	-0.029738309
120	0x3c1429b6	0.009043148
121	0x3cc99ad3	0.024609959
122	0xbda67074	-0.081269175
123	0xbea13261	-0.3148375
124	0xbe43f39a	-0.19135895
125	0xbe88e97c	-0.26740634
126	0xbe95d2e0	-0.29262447
127	0xbb9f2f95	-0.004857967
128	0xbe3b4fec	-0.18292207
129	0xbd7ca9c8	-0.061685354
130	0xbcb53f89	-0.022125022
131	0x3e08484d	0.1330883
132	0xbda4913c	-0.08035514
133	0x3da37a22	0.07982279
134	0xbe329acd	-0.17441864
135	0x3da2ceb8	0.07949585
136	0x3d187b0e	0.03722673
137	0xbc858d41	-0.016302707
138	0x3d78307b	0.06059311
139	0x3dcd1e4e	0.10015546
140	0xbe249053	-0.1607068
141	0xbdab7a8e	-0.08372985
142	0xbcb0be86	-0.021575224
143	0xbd678b20	-0.056529164
144	0x3e89d3ec	0.26919496
145	0xbe1c3dd2	-0.15257958
146	0x3dbdb346	0.09262709
147	0x3d3b8682	0.045782574
148	0xbe870203	-0.26368722
149	0xbd89d5bf	-0.06730222
150	0xbe5aeed5	-0.2138017
151	0x3ccb934d	0.024850512
152	0x3e2f2e55	0.17107518
153	0x3c1c1f20	0.009528905
154	0xbdddb248	-0.1082502
155	0x3e8946b2	0.2681175
156	0x3e405418	0.18782079
157	0xbda43dd4	-0.08019605
158	0x3d6e4624	0.05817236
159	0xbe58d7df	-0.21176098
160	0x3cb67109	0.022270696
161	0xbd95f4dd	-0.073220946
162	0x3e6598dc	0.22421592
163	0xbe1fc3ea	-0.15602079
164	0x3e0970ca	0.13421932
165	0xbdd5420d	-0.10412989
166	0x3d0bd7c4	0.034141317
167	0x3e2c53f6	0.16828904
168	0x3d936f50	0.071989655
169	0xbde05c8a	-0.109551504
170	0xbd2655bd	-0.04060911
171	0xbe457bb2	-0.19285467
172	0xbe80e826	-0.25177115
173	0xbe398b5a	-0.18119565
174	0xbdcc0690	-0.09962189
175	0xbd2bcc53	-0.041942906
176	0xbddfdf90	-0.10931313
177	0x3c7d05a4	0.015443239
178	0x3db86b0b	0.09004792
179	0x3da3eea7	0.08004504
180	0x3d5abbf2	0.053401895
181	0x3d049dbc	0.03237699
182	0x3e064b59	0.1311468
183	0xbda5dfcb	-0.08099326
184	0x3d3738aa	0.044731773
185	0xbc8794c7	-0.016550435
186	0x3c9bbe8e	0.019011762
187	0x3e51a163	0.2047172
188	0x3d8b0ce8	0.06789571
189	0x3cf31b45	0.029676089
190	0x3de0a9c4	0.1096988
191	0xbc151863	-0.0091000525
192	0xbd2cc02a	-0.04217545
193	0x3da1d38d	0.07901678
194	0x3d468ecd	0.04847603
195	0xbe5ae826	-0.2137762
196	0x3cdff3e6	0.02733798
197	0xbe8024bb	-0.25028023
198	0xbe473fa3	-0.19457869
199	0xbde404b9	-0.11133713
200	0x3d0fa542	0.03506971
201	0xbaf664b1	-0.0018798319
202	0x3dd1bff8	0.10241693
203	0xbe5fd96c	-0.21860284
204	0xbe354b29	-0.17704453
205	0xbd0a6905	-0.03379156
206	0x3cafc4f6	0.021456223
207	0x3ad4f2ac	0.0016246638
208	0xbdca8307	-0.09888273
209	0x3e21f6e2	0.15816835
210	0xbe357753	-0.177213
211	0x3e175ed1	0.14782263
212	0x3e8fc87e	0.2808265
213	0x3d8550db	0.065095626
214	0xbe73a724	-0.23794228
215	0xbddb57bf	-0.107100956
216	0x3d15e5ce	0.036596112
217	0xbe53adfb	-0.20671837
218	0x3d83e3ad	0.0643991
219	0xbe7a0c75	-0.24418814
220	0x3d6f16c9	0.05837134
221	0xbd7bbd8a	-0.061460055
222	0xbd50da98	-0.050989717
223	0xbe64e198	-0.22351682
224	0xbcaa7352	-0.020806942
225	0xbc8c4217	-0.017121358
226	0xbe78675e	-0.24258181
227	0x3c09ebef	0.008418067
228	0xbe2e03f0	-0.1699369
229	0xbc2a8ded	-0.010409814
230	0xbea17909	-0.31537655
231	0x3e2dfe0e	0.16991445
232	0xbe308d3d	-0.17241378
233	0x3dddb1f1	0.10824955
234	0x3b9ff9ec	0.004882088
235	0xbe799873	-0.24374561
236	0xbd1adf2e	-0.037810497
237	0xbe32dbbd	-0.17466636
238	0xbd218cda	-0.039440967
239	0x3dcae76d	0.09907422
240	0xbe09b1eb	-0.13446777
241	0x3dee9f19	0.11651439
242	0xbe756107	-0.23962794
243	0xbc55d937	-0.013052276
244	0x3a0d78aa	0.00053967035
245	0x3d82c5a8	0.06385356
246	0xbe37a153	-0.17932634
247	0xbd42d15a	-0.047562934
248	0x3e169ca3	0.1470819
249	0xbe53a443	-0.2066813
250	0xbe2f1b3c	-0.17100233
251	0xbe72e885	-0.23721512
252	0x3e12c629	0.14333405
253	0xbe42fc60	-0.19041586
254	0x3c888427	0.016664578
255	0x3e9fd909	0.31220272

Linear2.weight f4 [256, 256]
0	0x3b01a045	0.0019779366
1	0xbc9f6819	-0.019458817
2	0xbd9ca701	-0.07649041
3	0xbd98a44a	-0.07453211
4	0xbcbb751a	-0.022882987
5	0xbbff8699	-0.0077980277
6	0x3cbeb987	0.023281826
7	0x3c8b768d	0.017024303
8	0xbdbecb29	-0.093160935
9	0x3d810b58	0.06300992
10	0xbd4631e9	-0.04838744
11	0xbd7bd511	-0.061482493
12	0x3d081b80	0.03322935
13	0xbcc1c022	-0.023651186
14	0xbda7defe	-0.08196829
15	0x3c825adf	0.015912471
16	0x3c8e66d9	0.017383026
17	0xbd9996e0	-0.0749948
18	0xbd61347c	-0.054981694
19	0xbd86f39b	-0.06589433
20	0x3ca6fe2c	0.02038487
21	0xbce882a8	-0.028382614
22	0x3d5b5973	0.053552102
23	0xbc918a07	-0.017766012
24	0xbcfa7ebb	-0.030578008
25	0xbc1656b6	-0.009175947
26	0x3ca925e5	0.020647952
27	0x3d1ba701	0.038001064
28	0xbd417861	-0.047233943
29	0xbd500f87	-0.050796058
30	0x3d06ef6d	0.032943178
31	0xbd8bc71f	-0.06825089
32	0xbd68580c	-0.056724593
33	0xbcc3dff8	-0.023910508
34	0x3d30f6ec	0.043204233
35	0x3cd674c2	0.026178721
36	0x3c90f5a5	0.017695257
37	0xbd921a78	-0.07133955
38	0xbd021348	-0.03175667
39	0x3d0e5920	0.034752965
40	0xbcb6cef0	-0.022315472
41	0xbd566115	-0.05233868
42	0xbd32fe61	-0.043699626
43	0xbd0f8810	-0.03504187
44	0xbca58891	-0.020206721
45	0xbd056b94	-0.032573298
46	0xbd46ceb1	-0.04853696
47	0xbd1e18c3	-0.038597833
48	0x3cda3060	0.026634395
49	0x3c278658	0.010224901
50	0xbd2a9c8f	-0.041653212
51	0xbdbb6d88	-0.09151751
52	0x3cfc7700	0.030818462
53	0xbd315eb2	-0.0433032
54	0xbd975787	-0.073897414
55	0xbd5e0097	-0.05419978
56	0xbd432b82	-0.047648914
57	0xbb9cd1d8	-0.0047857575
58	0x3c741785	0.014898186
59	0xbcfca487	-0.030840172
60	0xbbdc67de	-0.006726249
61	0xbc997a68	-0.018735126
62	0x3d3ee423	0.046604287
63	0x3d5c52b6	0.053789817
64	0xbd83904f	-0.06424009
65	0x3d1167e5	0.035499472
66	0x3c8dd4ce	0.017313387
67	0x3c84e59b	0.016222766
68	0x3c3448d6	0.011003694
69	0xbd3a2f10	-0.04545504
70	0xbc5c249f	-0.0134364655
71	0x3cb741d1	0.02237025
72	0x3d474d71	0.04865784
73	0xbbd455b1	-0.006479942
74	0x3b1c6a20	0.0023866966
75	0xbdb63a24	-0.08897808
76	0x3c87fdac	0.016600452
77	0x3d24820f	0.040163096
78	0xbc8bfcf7	-0.017088396
79	0xbd851a49	-0.06499154
80	0xbd97aba8	-0.07405788
81	0xbbb5b700	-0.005545497
82	0xbbabb59c	-0.0052401554
83	0x3c850eca	0.016242404
84	0x3bc473fa	0.005995271
85	0xbd3f04e7	-0.046635535
86	0x3d5556a6	0.052084588
87	0xbc6a422d	-0.014298004
88	0x3c85b7c1	0.016322972
89	0xbbef5e1d	-0.0073049203
90	0xbc656ede	-0.014003484
91	0xbd005143	-0.031327497
92	0xbd80efa9	-0.062957115
93	0xbbcca9d1	-0.0062458296
94	0xbd6a3c75	-0.057186563
95	0x3b14edd3	0.0022724762
96	0x3cadcd1f	0.021215973
97	0xbc00d546	-0.007863348
98	0xbd366afd	-0.044535626
99	0x3ba25c6c	0.004954865
100	0xbd49e7e8	-0.04929343
101	0x3cf96a66	0.030446243
102	0xbdc1a01f	-0.09454369
103	0x3c0b97a1	0.008520038
104	0x3c434a34	0.011919547
105	0x3bf3e493	0.0074430197
106	0x3c459e19	0.012061619
107	0x3d1e48e5	0.038643736
108	0xbdab27da	-0.083572105
109	0xbd5e155b	-0.054219585
110	0x3d15d060	0.036575675
111	0xbc1bb0bd	-0.009502587
112	0x3d126b0a	0.03574661
113	0xbd503926	-0.05083575
114	0xbc960261	-0.018311681
115	0xbc873d54	-0.016508736
116	0xbb97c6d3	-0.004631856
117	0x3cfe7f0f	0.031066446
118	0x3d447062	0.04795874
119	0xbd7d6922	-0.06186784
120	0xbaddebb5	-0.0016931208
121	0xbbc269dc	-0.0059330296
122	0xbd3b3794	-0.0457073
123	0x3cd986c3	0.026553517
124	0xbdaf347a	-0.08554931
125	0x3c624758	0.013810955
126	0x3cca235c	0.024675064
127	0x3d407d60	0.046994567
128	0xbcb077cd	-0.0215415
129	0xbcaf8a46	-0.021428239
130	0x3d808b21	0.06276537
131	0xbd8a5147	-0.06753784
132	0x3a6b5b9c	0.00089781894
133	0x3d73f29b	0.05955754
134	0xbc3c9aac	-0.011511486
135	0x3ccb9757	0.024852438
136	0xbd41b926	-0.047295712
137	0xbd870bb9	-0.06594033
138	0xbd7a4d66	-0.06110897
139	0xbd03dee9	-0.032195006
140	0x3bf6fec1	0.0075376933
141	0xbe120a46	-0.14261732
142	0xbd8b321b	-0.06796666
143	0x3ba10b40	0.004914671
144	0x3cb752ee	0.022378411
145	0xbda036e5	-0.0782297
146	0xbba4da1d	-0.005030884
147	0x3ccfc068	0.025360301
148	0xbd389893	-0.04506738
149	0x3ca4ac9f	0.020101843
150	0xbbefae17	-0.0073144543
151	0xbd0a85c6	-0.033818983
152	0xbd8acbeb	-0.067771755
153	0xbd80599e	-0.06267093
154	0xbdabfc37	-0.083977155
155	0x3d27a4d9	0.040928695
156	0x3be8181d	0.0070829527
157	0x3cbfc8cc	0.023411177
158	0x3adf2145	0.0017023465
159	0xbcb27268	-0.021783069
160	0x3d213be4	0.039363757
161	0xbb21a06c	-0.002466227
162	0xbc8f81e4	-0.017517991
163	0xbd5f8e96	-0.05457934
164	0xbd49ab4b	-0.049235623
165	0x3d1e90aa	0.03871218
166	0x3b0b4ef0	0.0021256767
167	0x3c430b62	0.011904569
168	0x3cb0e0be	0.02159154
169	0xbd186ca2	-0.037212975
170	0xbd44d4cc	-0.0480545
171	0xbdc8cce0	-0.09804702
172	0x3b841c65	0.004031705
173	0xbcb4dd68	-0.022078231
174	0xbd2e7ad3	-0.042597603
175	0xbc371f6f	-0.011176928
176	0xbc938ac7	-0.01801051
177	0xbd80dfd5	-0.062926926
178	0xbd406d75	-0.046979386
179	0x3cc8db53	0.024518644
180	0xbc282368	-0.010262348
181	0xbcbd397a	-0.023098696
182	0xbd3f5444	-0.04671122
183	0x3b53ee64	0.0032338137
184	0x3d29f23c	0.04149078
185	0x3ce44a60	0.027867496
186	0xbd51987e	-0.05117082
187	0x3b1e587a	0.0024161623
188	0xbd39bba7	-0.045344975
189	0xbc217f23	-0.009856972
190	0x3d09584f	0.033531483
191	0x3b91abf6	0.004445548
192	0xbbc63450	-0.0060487166
193	0x3dbe399f	0.09288334
194	0xbda0bd1c	-0.0784857
195	0xbcc31f3b	-0.023818603
196	0xb91180e1	-0.00013876289
197	0x3d55f3ea	0.052234568
198	0xbc11b884	-0.00889409
199	0xbd108130	-0.035279453
200	0xbc0e20e8	-0.008674838
201	0xbd1f36c8	-0.038870603
202	0xbd458cb3	-0.048229884
203	0x3ca49c9c	0.020094208
204	0xbb6d1992	-0.0036178571
205	0x3d41935a	0.047259666
206	0xbd898839	-0.067154355
207	0xbc012ff3	-0.007884967
208	0xbd60dd57	-0.054898586
209	0xbd4c2af1	-0.04984564
210	0xbd68693c	-0.056740984
211	0x3d48296b	0.048867624
212	0x3d6cf8f7	0.05785462
213	0xbd44bc3a	-0.04803107
214	0xbd51fdf3	-0.051267575
215	0x3c3c7706	0.011502987
216	0xbd5dba51	-0.054132763
217	0x3d0909cb	0.033456605
218	0xbd1732d9	-0.036913726
219	0xbc026ea2	-0.007960947
220	0x3c99046b	0.018678864
221	0xbce53f8b	-0.027984401
222	0x3aecf997	0.0018079755
223	0xbd33c59a	-0.04388962
224	0x3d2ada5d	0.041712154
225	0xbd82635f	-0.0636661
226	0xbd93d3e0	-0.07218146
227	0xbce2e57f	-0.027697323
228	0xbda67671	-0.0812806
229	0xbca3d3ac	-0.019998394
230	0x3d2c4f0b	0.04206757
231	0xbd30334a	-0.043017663
232	0x3c4741e7	0.012161708
233	0x3db0bc42	0.08629657
234	0xbd11eda2	-0.035627015
235	0xbd7c0fe8	-0.061538607
236	0xbd90c45f	-0.07068705
237	0x3be0cfff	0.0068607326
238	0x3cf7904f	0.030220179
239	0x3d41ab8e	0.047282748
240	0xbd3e87c0	-0.04651618
241	0x3c2347ed	0.009965879
242	0xbd113a21	-0.035455827
243	0xbbd77cec	-0.006576171
244	0xbdbf5cbd	-0.0934386
245	0xbd3e1390	-0.046405375
246	0xbcb834a0	-0.022486031
247	0x3cfbd0e5	0.030739257
248	0xbd6a77c3	-0.05724312
249	0xbdafa1b8	-0.08575767
250	0xbda15c97	-0.07878988
251	0xbc585365	-0.013203477
252	0x3d15b3bd	0.036548365
253	0x3d2d7eb5	0.042357165
254	0xbc4acacc	-0.012377452
255	0x3d1336ec	0.03594105

Linear2.bias f4 [256]
0	0x3cc02968	0.023457244
1	0x3c76ae37	0.0150561845
2	0x3e13d360	0.14436102
3	0xbd955fe9	-0.07293684
4	0x3c2e4204	0.010635857
5	0xbb81c14a	-0.0039598094
6	0x3c643d13	0.013930577
7	0xbd5c7cd1	-0.05382997
8	0xbd064355	-0.032779057
9	0xbda44883	-0.08021643
10	0x3d8e2f77	0.06942647
11	0x3d17dfbb	0.0370786
12	0x3c910ccf	0.017706303
13	0xbc8a8a51	-0.016911658
14	0xbd5916f8	-0.05300042
15	0xbd0592c7	-0.03261068
16	0xbd11d33d	-0.035601843
17	0x3b3a57c9	0.0028433672
18	0x3c0d3703	0.008619073
19	0x3cf750a8	0.030189827
20	0xbc0153d1	-0.007893519
21	0xbd4d0206	-0.050050758
22	0x3d971263	0.07376554
23	0xbbdb9c7a	-0.006702003
24	0xbce4483c	-0.027866475
25	0xbc499b98	-0.012305163
26	0xbd716ba6	-0.058940552
27	0x3daa16d5	0.08305136
28	0xbd79bccc	-0.060971066
29	0xbcc728b6	-0.024311405
30	0xbcb9bf46	-0.022674214
31	0xbc971a27	-0.018445088
32	0xbd357852	-0.0443042
33	0xbdab708c	-0.08371076
34	0xbd68a4e0	-0.056797862
35	0x3cbd6ae8	0.023122266
36	0xbbe4132e	-0.006960294
37	0xbd3d3f9e	-0.04620325
38	0xbdad763b	-0.08469816
39	0xbd8afbdc	-0.067863196
40	0x3dacd4b1	0.08439005
41	0xbcc258ed	-0.023724044
42	0xbc579b8b	-0.013159643
43	0x3d0768e5	0.03305902
44	0xbbf9e202	-0.007625819
45	0x3c2a648f	0.010399952
46	0xbccb3f4d	-0.024810458
47	0xbda67b27	-0.08128958
48	0x3d9374a4	0.07199982
49	0x3c0fe302	0.00878215
50	0xbd2ee9dd	-0.0427035
51	0x3cdde79a	0.027087975
52	0x3a8a4ede	0.0010552069
53	0xbd7d2fca	-0.061813153
54	0xbcfe492f	-0.031040756
55	0xbda4879b	-0.08033677
56	0x3d3ec170	0.046571195
57	0x3d04b7e5	0.032401938
58	0xbd2dcada	-0.042429782
59	0x3dd1b951	0.102404244
60	0xbd5fdd03	-0.054654133
61	0xbd0280d0	-0.031861126
62	0xbd8ca37a	-0.06867118
63	0xbc40f2a8	-0.011776604
64	0xbcba203a	-0.022720445
65	0xbd467e1d	-0.048460115
66	0xbd4e4d10	-0.05036646
67	0x3d98cd79	0.07461066
68	0xbd1c03ce	-0.038089566
69	0x3d16bb3f	0.036799666
70	0xbc64dcb6	-0.013968637
71	0x3d801f8b	0.06256016
72	0xbcf5eae0	-0.030019224
73	0x3c67b50e	0.014142288
74	0xbcd560ed	-0.026047194
75	0xbd81b058	-0.06332463
76	0xbd2ab4c2	-0.04167629
77	0x3cd37ad8	0.025815412
78	0xbb9e6c9c	-0.0048347246
79	0x3c800372	0.015626643
80	0x3cbdd73a	0.023173917
81	0xbd5bbbb5	-0.05364581
82	0x3d53012f	0.0515148
83	0x3cd449c5	0.025914082
84	0xbc8d0ec8	-0.017218962
85	0xbcb5b285	-0.022179851
86	0x3c582266	0.013191795
87	0xbbe16327	-0.006878275
88	0x3cf12f64	0.029441543
89	0xbd6a8172	-0.057252355
90	0xbd8cd612	-0.06876768
91	0x3db26ed1	0.08712543
92	0x3d03f630	0.032217205
93	0x3c4087c0	0.011751115
94	0xbd2556cd	-0.040365983
95	0xbbd484a8	-0.0064855404
96	0xbd022447	-0.031772878
97	0xbbd8cd6a	-0.006616284
98	0xbc1d0731	-0.009584234
99	0x3d1c81c3	0.038209688
100	0x3d4001d7	0.046876755
101	0xbc9898a2	-0.018627468
102	0x3ceb370e	0.028712776
103	0x3d16a3ed	0.036777426
104	0xba9ebb6f	-0.0012110303
105	0xbda91893	-0.0825664
106	0xbd953b8c	-0.07286748
107	0xbd2ac077	-0.041687455
108	0x3d78efd7	0.060775604
109	0x3dbe639f	0.09296345
110	0xbb3e4d7a	-0.002903788
111	0xbd372015	-0.04470833
112	0x3d077c53	0.03307755
113	0xbbffd5d6	-0.0078074737
114	0xbcca0f08	-0.02466537
115	0xbbee7f7f	-0.0072783823
116	0xbc6927c6	-0.014230674
117	0xbcc0f9ae	-0.023556557
118	0xbd975db2	-0.07390918
119	0xbd6c204e	-0.057647996
120	0xbd25fc23	-0.04052366
121	0x3ca7ba6b	0.020474633
122	0xbd85fe89	-0.06542689
123	0xbd8a60c8	-0.06756741
124	0x3ab39fef	0.001370428
125	0xbd3cf601	-0.046133045
126	0x3dea35b2	0.11436023
127	0x3d261efd	0.040556896
128	0x3b85f199	0.0040876386
129	0x3d35c520	0.044377446
130	0x3c016d07	0.007899529
131	0x3b794860	0.0038037524
132	0xbc1eb9e1	-0.009687872
133	0xbd98e983	-0.07466414
134	0xbd1bb3be	-0.038013212
135	0xbd0ed30d	-0.034869242
136	0xbd91ce80	-0.07119465
137	0xbd52c0c9	-0.051453386
138	0x3d915424	0.07096127
139	0xbd48b320	-0.048998952
140	0xbd9179c6	-0.071033046
141	0x3ccc403b	0.024932971
142	0xbbb235c4	-0.0054385383
143	0xbcbca7ca	-0.023029227
144	0xbbd8a6aa	-0.006611665
145	0x3d167f3a	0.036742426
146	0xbce57747	-0.028010977
147	0x3d4baf05	0.04972746
148	0xbd26752b	-0.040639084
149	0x3d3c90b2	0.04603643
150	0xbc8e6f82	-0.017387155
151	0xbd91078d	-0.07081518
152	0xbd1c9e33	-0.038236808
153	0xbc939d52	-0.018019352
154	0xbd214f7e	-0.03938245
155	0x3cd2a54c	0.025713585
156	0x3dd49619	0.10380191
157	0x3d079ee5	0.033110518
158	0x3b3866c9	0.0028137437
159	0x3a5279a6	0.0008028991
160	0x3dae82ea	0.085210636
161	0xbd792989	-0.060830627
162	0x3ad8e1ce	0.0016546787
163	0xbd73e9eb	-0.059549253
164	0xbd35fca8	-0.044430405
165	0x3d2b0d10	0.041760504
166	0xbda88509	-0.082284994
167	0x3df784bf	0.12085866
168	0x3c62d2b1	0.013844178
169	0x3d833767	0.064070515
170	0xbc55978c	-0.01303662
171	0xbd932afd	-0.07185934
172	0x3a1b9443	0.00059348735
173	0xbd4e34e3	-0.050343405
174	0xbd41d023	-0.047317635
175	0x3bdeaaaa	0.006795247
176	0xbd500863	-0.05078925
177	0xbd22564b	-0.039633077
178	0x3a29dd05	0.0006479773
179	0x3cb85d72	0.022505496
180	0xbd2632c0	-0.040575743
181	0xbc552d78	-0.013011329
182	0xbd0bde20	-0.03414738
183	0xbd903646	-0.07041602
184	0xbd16869e	-0.036749475
185	0xbd54bbbe	-0.051936857
186	0x3ba02774	0.0048875157
187	0x3e07289a	0.13199082
188	0xbd9bd501	-0.07608987
189	0x3d11a087	0.03555348
190	0xbccc051f	-0.024904786
191	0xbc403c7b	-0.01173317
192	0xbd94bb71	-0.07262314
193	0xbbff1629	-0.007784624
194	0xbd8e20c9	-0.06939847
195	0x3cdf2674	0.027240016
196	0xbd8cb8ab	-0.0687116
197	0x3d01b553	0.031667065
198	0xbc985e8e	-0.018599775
199	0x3bdb15ba	0.0066859396
200	0xbc9dcbd7	-0.019262237
201	0xbde10288	-0.10986811
202	0x3ba833ff	0.0051331515
203	0xbce88d04	-0.028387554
204	0xbd15f5f6	-0.03661152
205	0x3b82a53e	0.0039869836
206	0x3bffebd7	0.0078100967
207	0x3cf1f410	0.029535323
208	0x3d07b145	0.03312804
209	0x3b0b3e5e	0.002124689
210	0x3c1b9f83	0.00949848
211	0xb98521eb	-0.00025393008
212	0xbbfbdc04	-0.00768614
213	0xbdbf9f20	-0.093565226
214	0x3d33211c	0.043732747
215	0xbd2e5f30	-0.042571247
216	0x3e1f8a91	0.15580203
217	0x3d4d6033	0.05014057
218	0xbd5ed128	-0.054398686
219	0xbce91ec2	-0.02845705
220	0xbce59144	-0.02802337
221	0xbca264f9	-0.019823538
222	0xbd5cd6bb	-0.05391572
223	0x3d13ff9a	0.036132433
224	0x3b45aa7a	0.0030161426
225	0xbcabeb9d	-0.020986373
226	0xbd854b50	-0.06508505
227	0xbd852235	-0.06500665
228	0x3d2aa865	0.0416645
229	0x3a2b9724	0.0006545654
230	0x3d07917a	0.03309772
231	0x3ca95529	0.02067049
232	0xbc620036	-0.013793996
233	0xbd78115a	-0.060563423
234	0xb9209aa5	-0.00015316399
235	0xbd950f9c	-0.07278368
236	0x3d7edd8f	0.062223013
237	0x3d85a1b3	0.06524982
238	0xbcf6999a	-0.03010254
239	0x3bc74f6e	0.006082467
240	0xbd128761	-0.03577364
241	0xbcfcb0be	-0.030845996
242	0x3caaf1f7	0.020867331
243	0x3d0531e5	0.032518286
244	0xbd8477b6	-0.064681455
245	0xbd6297f9	-0.055320714
246	0x3c89f47d	0.016840214
247	0xbd4ffeaf	-0.050779995
248	0xbd985c78	-0.07439512
249	0xbd201eb9	-0.0390918
250	0xbd846e02	-0.06466295
251	0xbd51518c	-0.05110316
252	0x3d712f8f	0.058883246
253	0xbd631b13	-0.05544574
254	0xbd3cc4aa	-0.04608599
255	0xbd06a739	-0.03287432

Linear3.weight f4 [256, 256]
0	0xbd04721a	-0.03233538
1	0x3d1419e8	0.03615752
2	0x3cf58b8f	0.029973773
3	0x3c36aac8	0.011149116
4	0xbc496504	-0.01229215
5	0x3bd34146	0.00644699
6	0xbcc47d65	-0.023985574
7	0xbd741fe9	-0.059600744
8	0x3c3eed15	0.011653204
9	0x3d4b5b97	0.049647894
10	0x3c932d97	0.017966075
11	0x3ce64b69	0.02811213
12	0x3d707c06	0.058712028
13	0xbd5c504d	-0.05378752
14	0xbd4dffb3	-0.050292682
15	0xbd20e165	-0.039277453
16	0x3c855584	0.016276129
17	0xbc5b4f9f	-0.013385682
18	0xbb907865	-0.0044088834
19	0x3cad5cf0	0.02116248
20	0xbd58c71b	-0.052924257
21	0xbc122562	-0.008920046
22	0xbd3d7065	-0.046249766
23	0xbd1b22dd	-0.037875045
24	0x3d4fbdc8	0.0507181
25	0xbc8eb6ac	-0.01742109
26	0xbd45ce41	-0.048292402
27	0x3d2bc6c3	0.0419376
28	0xbd9bb1ad	-0.07602248
29	0x3d3af174	0.045640424
30	0xbc484348	-0.012223072
31	0xbc0ce4b2	-0.008599447
32	0x3c499390	0.012303248
33	0x3d3f65fa	0.04672811
34	0x3d109969	0.035302553
35	0xbd18132f	-0.03712767
36	0xbcf8c149	-0.030365603
37	0xbd8af39b	-0.06784745
38	0xbd4234b2	-0.047413535
39	0xbd764c9c	-0.060131654
40	0xbd5a8d25	-0.053357262
41	0x3c16dcc2	0.009207906
42	0xbc93595a	-0.017986942
43	0xbc5538e6	-0.013014054
44	0x3d0a1e9e	0.033720605
45	0x3d143025	0.036178727
46	0x3d47930a	0.04872421
47	0xbd1d4337	-0.03839418
48	0x3c7179ac	0.0147384815
49	0x3cc31f1c	0.023818545
50	0x3d380270	0.0449242
51	0xbd7e8e02	-0.062147148
52	0xbc016b86	-0.007899171
53	0x3c559b49	0.013037511
54	0xbccd3e55	-0.025054136
55	0x3d829da1	0.063777216
56	0x3d6809fe	0.056650154
57	0x3ce159b5	0.027508596
58	0xbd1e6b6e	-0.03867667
59	0xbc447af4	-0.011992205
60	0x3cb6ac0c	0.022298835
61	0x3cb9d25a	0.022683311
62	0xb9e14b83	-0.00042971605
63	0xbc5a3c7a	-0.013320083
64	0xbcbc6a10	-0.022999793
65	0x3d22a0bf	0.03970408
66	0x3d44da42	0.04805971
67	0xbd1a9f44	-0.037749544
68	0xbd2c04f5	-0.041996915
69	0xbac38526	-0.0014917001
70	0xbd2d5167	-0.04231396
71	0xbcdc9015	-0.026924172
72	0x3cbc4134	0.02298031
73	0xbc438856	-0.0119343605
74	0x3ba14c12	0.0049223984
75	0xbd06e5a0	-0.03293383
76	0x3d293dfc	0.04131888
77	0x3d640ff6	0.055679284
78	0xbd1c8aac	-0.038218185
79	0x3d094139	0.033509467
80	0x3cbea394	0.02327136
81	0xbd679196	-0.056535326
82	0x3c6bb401	0.014386178
83	0xbbf756bc	-0.0075481813
84	0x3d309ae7	0.043116476
85	0xbc03ba77	-0.008040062
86	0xbd4f8668	-0.05066529
87	0x3cac100f	0.021003751
88	0xbc20dcd0	-0.009818271
89	0x3d2ca1b1	0.04214639
90	0x3c317278	0.010830514
91	0xbb3dd92d	-0.0028968558
92	0x3cea66ba	0.028613437
93	0xbc07ab25	-0.00828055
94	0xbd3d2fe5	-0.046188254
95	0xbd771502	-0.06032277
96	0xbd779b76	-0.060450993
97	0x3bcae48a	0.0061917948
98	0xbd5817a9	-0.05275694
99	0x3d4c0e07	0.049818065
100	0xbd92bca3	-0.07164886
101	0x3d34d368	0.044146925
102	0xbd8743e7	-0.06604748
103	0x3d428ad4	0.047495678
104	0xbccc7a20	-0.024960577
105	0x3d365a88	0.04451993
106	0x3d146e23	0.036237847
107	0x3d47de7e	0.04879617
108	0xbc1b1281	-0.009464861
109	0x3d0b352f	0.033986267
110	0xbda8bdfe	-0.08239363
111	0x3d2cb56c	0.042165205
112	0x3c4d2067	0.012519932
113	0x3c8c1620	0.017100394
114	0x3ce324ac	0.027727447
115	0xbcea6bc6	-0.028615844
116	0x3d02eaff	0.03196239
117	0xbcfe1499	-0.031015681
118	0x3cb82724	0.022479601
119	0xbd1bd617	-0.03804597
120	0x3d36355a	0.044484474
121	0xbc773a8d	-0.015089643
122	0x3c8a1222	0.01685435
123	0xbbd3bd2a	-0.006461759
124	0xbca59d71	-0.020216675
125	0xbca02398	-0.019548222
126	0xbd6d9d62	-0.05801142
127	0x3d6ca289	0.057772193
128	0x3c5639db	0.013075317
129	0x3d05427c	0.032534108
130	0x3d1d5700	0.038413048
131	0xbd22ff6c	-0.03979437
132	0xbd536ab5	-0.051615436
133	0x3cc977dc	0.024593286
134	0x3c869d97	0.016432567
135	0x3c6a3b89	0.014296421
136	0xbc81b4ef	-0.015833346
137	0x3bc31ea8	0.0059545822
138	0x3d5dbd0c	0.054135367
139	0x3d749429	0.05971161
140	0xbd8b02e6	-0.06787662
141	0xbd207120	-0.039170384
142	0xbd3a6d46	-0.045514368
143	0xbbb9d9d0	-0.005671717
144	0x3cf49c79	0.029859768
145	0x3d01e305	0.031710643
146	0xbd6ef1cc	-0.058336064
147	0xbd0dae04	-0.034589782
148	0x3c88e861	0.01671237
149	0xbca4afc6	-0.020103347
150	0xbd2eec24	-0.04270567
151	0x3cf80a5c	0.030278377
152	0x3d43c86b	0.047798555
153	0xbd1499fa	-0.036279656
154	0x3cf9d53a	0.030497182
155	0xbca891fc	-0.020577423
156	0xbce6a8be	-0.028156634
157	0x3d700a3c	0.05860351
158	0xbcbb1c43	-0.022840625
159	0xbd79511b	-0.060868364
160	0x3d09e200	0.033662796
161	0x3d101e0a	0.035184897
162	0xbd90f4a8	-0.070779145
163	0x3d6a2978	0.057168454
164	0xbd2636d4	-0.040579632
165	0x3d142f3a	0.03617785
166	0x3cfe2a31	0.031025978
167	0xbc6aa79e	-0.01432219
168	0xbd0b4dc7	-0.03400972
169	0xbc9a18ab	-0.01881059
170	0xbd440617	-0.04785737
171	0xbd0e0a08	-0.034677535
172	0xbd2e79a4	-0.042596474
173	0xbd0dcff9	-0.034622166
174	0xbc9aae18	-0.018881842
175	0xbd7a7a46	-0.061151765
176	0xbd57903e	-0.052627794
177	0x3d030b73	0.03199334
178	0xbd18c084	-0.037292972
179	0xbceb7d5a	-0.028746296
180	0x3a43134a	0.0007441534
181	0xbced614f	-0.028977064
182	0x3d5ebff2	0.054382272
183	0x3b50f30a	0.0031883144
184	0x3b862c53	0.0040946393
185	0xb9344328	-0.00017191155
186	0xbd85cbac	-0.06532988
187	0x3ac8f6fb	0.0015332395
188	0xbc54a322	-0.012978347
189	0xbd147c1e	-0.03625118
190	0xbd1d01f7	-0.038331952
191	0xbc8f1f75	-0.017471055
192	0x3d256e12	0.040388174
193	0xbd2e0364	-0.042483702
194	0xbd754a06	-0.059885047
195	0x3d37e0aa	0.04489199
196	0xbc190070	-0.009338483
197	0xbd15c474	-0.036564305
198	0x3b4cfd23	0.003127881
199	0x3bbab3ff	0.0056977267
200	0x3d62120c	0.055192992
201	0xbd803941	-0.0626092
202	0x3bc2859d	0.005936338
203	0xbd0b5b9c	-0.034022912
204	0x3d360043	0.044433843
205	0xbcee949b	-0.029123595
206	0xbd41627c	-0.047213063
207	0xbcf1fa29	-0.029538231
208	0x3d22714b	0.039658826
209	0xbd056ba4	-0.032573357
210	0xbcc7fec0	-0.024413466
211	0xbd154c9f	-0.036450025
212	0x3d69a46e	0.057041578
213	0xbc842e73	-0.01613543
214	0xbd47b1d5	-0.04875358
215	0x3d552141	0.052033667
216	0x3cd99bb7	0.026563508
217	0xbd854253	-0.06506791
218	0x3c384a05	0.011248116
219	0x3d44f26a	0.048082747
220	0xbd8d185a	-0.0688941
221	0xbd5dbb92	-0.05413396
222	0x3d2feceb	0.042950552
223	0x3d22cfd6	0.03974899
224	0xbbb7ff50	-0.0056151524
225	0xbc9b062a	-0.018923838
226	0xbbd2848a	-0.0064244913
227	0xbd58ad51	-0.052899662
228	0x3b6de7d5	0.0036301513
229	0xbd8343cf	-0.06409418
230	0xbcbca788	-0.023029104
231	0xbd7ba2c2	-0.061434515
232	0x3c36f99d	0.011167911
233	0xbd953989	-0.072863646
234	0xbca3fe2c	-0.02001866
235	0xbc973195	-0.01845626
236	0xbd72369a	-0.059134103
237	0xbd317d53	-0.04333241
238	0xbd454550	-0.048161805
239	0xbd68e1a1	-0.0568558
240	0x3cec6ae8	0.02885957
241	0xbd470fec	-0.04859917
242	0x3c25ab42	0.010111632
243	0x39a95bd0	0.00032302598
244	0xbcd006fe	-0.02539396
245	0xbcd225c5	-0.025652776
246	0xbd736993	-0.059426855
247	0xbc960284	-0.018311746
248	0xbc936032	-0.017990205
249	0xbd65e04e	-0.056122117
250	0xbd3fb0ba	-0.0467994
251	0xbc8d2dc9	-0.017233746
252	0xbc68e512	-0.014214771
253	0xbd06940c	-0.032856032
254	0xbcf4d039	-0.029884445
255	0xbd4b67d7	-0.049659576

Linear3.bias f4 [256]
0	0x3b8d9c98	0.004321646
1	0xbc44c41a	-0.012009645
2	0x3b0dec14	0.0021655606
3	0x3c85f2e6	0.016351175
4	0xbd9840ff	-0.07434272
5	0x3cd40eb0	0.02588591
6	0xbd3a9ea9	-0.045561466
7	0x3e226d16	0.15861925
8	0xbd395fbf	-0.045257326
9	0x3b4e409c	0.0031471616
10	0xbd8f7eaa	-0.07006581
11	0x3d290a8d	0.041269828
12	0x3dd1fb1a	0.10252972
13	0x3cf585b7	0.029970987
14	0xbda21aa0	-0.079152346
15	0xbc91ea77	-0.017811997
16	0x3e178485	0.14796646
17	0xbcbc177b	-0.022960415
18	0xbd854f22	-0.06509234
19	0xbd8d0849	-0.06886346
20	0xbd817f8b	-0.06323155
21	0x3b07becb	0.0020713087
22	0xbd8fca5a	-0.070210174
23	0x3ce37a6d	0.027768338
24	0xbd89dd3f	-0.067316525
25	0x3d995a44	0.0748792
26	0x3e4c607d	0.19958682
27	0x3ceeeed7	0.029166622
28	0xbd66acf7	-0.056317296
29	0xbc88c6a7	-0.016696287
30	0xbe042185	-0.12903412
31	0xbb4ba141	-0.0031071457
32	0x3e590abe	0.21195504
33	0xbd874127	-0.06604224
34	0xbddf7e8d	-0.109128095
35	0xbd4df2bb	-0.050280314
36	0x3e70d978	0.23520458
37	0x3d6f1216	0.058366857
38	0xbd9b438d	-0.07581244
39	0xbd181e2b	-0.037138145
40	0x3d420920	0.047371984
41	0xbd43dc3c	-0.047817454
42	0xbcb0887b	-0.021549454
43	0x3ccb3f86	0.024810564
44	0xbbe9ef9d	-0.00713916
45	0x3c5d4583	0.013505342
46	0xbd4e08bb	-0.050301295
47	0xbd666c91	-0.05625588
48	0x3c9b2441	0.018938186
49	0x3d320855	0.043464977
50	0x3e17d9d3	0.14829187
51	0xbdc6fd8c	-0.09716329
52	0x3d87ad95	0.06624905
53	0xbbaa26e0	-0.0051926225
54	0xbd404ce9	-0.046948347
55	0xbd284f5b	-0.041091304
56	0xbd1a82c3	-0.03772236
57	0x3e156000	0.14587402
58	0xbc01e989	-0.007929214
59	0x3ca37bd4	0.019956507
60	0x3e4f3b4e	0.20237467
61	0xbca6f344	-0.02037967
62	0xbb8815fa	-0.0041530104
63	0xbd803e05	-0.06261829
64	0x3cd9f084	0.026603945
65	0x3b935ac4	0.004496904
66	0x3e2103f3	0.15724163
67	0x3ce4a5a3	0.027911013
68	0xbd921643	-0.07133152
69	0x3bde52a1	0.0067847525
70	0xbd87cc25	-0.06630734
71	0x3d500979	0.050790284
72	0xbcff7254	-0.031182446
73	0xbd52afd1	-0.051437203
74	0xbdc26e76	-0.09493725
75	0x3c74e78f	0.014947786
76	0x3c8faca0	0.017538369
77	0xb99f6c0f	-0.00030407353
78	0xbd86c770	-0.065810084
79	0x3d79afd2	0.06095869
80	0xbc3e2f68	-0.011607982
81	0xbd262d30	-0.040570438
82	0xbd84f57d	-0.06492136
83	0xbcd62293	-0.026139533
84	0xbd8e4b33	-0.06947937
85	0xbd4a444e	-0.049381547
86	0xbcf2a27d	-0.029618496
87	0x3d3a492f	0.04547995
88	0x3df1d2db	0.118077956
89	0xbd8b71f3	-0.068088435
90	0xbcea1a60	-0.02857703
91	0x3d64c569	0.055852327
92	0x3cc36085	0.023849735
93	0x3def39c5	0.116809405
94	0x3bd3837f	0.0064548845
95	0x3ca12e40	0.019675374
96	0xbd47c623	-0.048772942
97	0xbd908c25	-0.070579804
98	0xbdbd171e	-0.09232925
99	0x3c811130	0.015755266
100	0xbd51f534	-0.051259235
101	0xbd8b915e	-0.06814836
102	0x3d20c738	0.03925249
103	0x3b13b7ba	0.002253993
104	0xbc9821a5	-0.01857073
105	0xbca7e94e	-0.02049699
106	0xbd8cac42	-0.06868793
107	0x3d1ccac4	0.03827931
108	0x3c027942	0.00796348
109	0xbc4c6bc8	-0.012476869
110	0xbd02cc14	-0.031932905
111	0x3e0e24dc	0.13881248
112	0xbce442a5	-0.02786381
113	0x3e191e6d	0.14953013
114	0x3ccfd8c9	0.025371926
115	0x3d892a43	0.06697514
116	0xbbdfc755	-0.006829182
117	0x3e87a359	0.26491812
118	0x3dc64d94	0.096827656
119	0x3d630072	0.055420347
120	0xbd49cc85	-0.04926731
121	0x3ce90d5d	0.028448755
122	0xbd3085cb	-0.043096345
123	0x3b77a966	0.0037790178
124	0xbccb1ba4	-0.024793454
125	0xbda5eea9	-0.081021614
126	0x3cd8cb3a	0.026464093
127	0xbd6f21af	-0.058381733
128	0xbd947f26	-0.07250814
129	0xbda3a372	-0.07990159
130	0xbbd33b59	-0.006446284
131	0xbbbb85f0	-0.0057227537
132	0xbdaba475	-0.08380977
133	0xbd7bd71f	-0.061484452
134	0x3e0c03ea	0.13673368
135	0x3e09d80e	0.13461325
136	0x3c95b03b	0.01827251
137	0x3c22a13c	0.009926137
138	0x3ccb0e21	0.02478701
139	0xbc071f51	-0.0082472125
140	0x3d44e8be	0.048073523
141	0xbd59a073	-0.053131532
142	0x3d276b5a	0.040873863
143	0xbc2976da	-0.010343278
144	0xbd680e0d	-0.056654025
145	0x3d79a7d5	0.060951073
146	0xbc1ca780	-0.0095614195
147	0xbba35e68	-0.0049856193
148	0xbd700c6f	-0.058605608
149	0xbd70634a	-0.05868844
150	0x3d3c8262	0.04602278
151	0x3d35632f	0.044284042
152	0xbbe78e45	-0.0070665204
153	0xbce5adf0	-0.028037041
154	0xbbe174ca	-0.0068803774
155	0xbd4dfcfc	-0.050290093
156	0xbd9929c5	-0.0747867
157	0x3c2f1e39	0.010688358
158	0xbd2eb64e	-0.042654328
159	0xbd1b32dd	-0.037890304
160	0xbb939799	-0.004504156
161	0x3cf22487	0.029558433
162	0x3ced8808	0.028995529
163	0xbcdabedb	-0.026702335
164	0xbd11702a	-0.03550736
165	0x3bcc52f1	0.0062354733
166	0x3d9d6f21	0.07687212
167	0xbd5ed928	-0.054406315
168	0x3d1da8b0	0.03849095
169	0x3e21bc84	0.15794569
170	0xbc9967c4	-0.018726237
171	0xbb7692bc	-0.0037624082
172	0xbd8aefe8	-0.0678404
173	0xbd13e7d7	-0.03610977
174	0xbc443302	-0.011975052
175	0x3e7583ce	0.23976061
176	0xbda9e02d	-0.08294711
177	0x3d00125e	0.031267516
178	0xbca88544	-0.020571359
179	0xbd82403d	-0.06359909
180	0xbced5aef	-0.028974025
181	0xbccb889b	-0.024845412
182	0xbda3a06f	-0.07989585
183	0xbca85694	-0.020549096
184	0x3e298d74	0.16557866
185	0x3d6fe404	0.058567062
186	0xbd87a126	-0.066225335
187	0xbd1568cf	-0.036476906
188	0x3c088f7d	0.0083349915
189	0xbd3bd0f2	-0.045853563
190	0xbd73b508	-0.059498817
191	0x3ccbf416	0.024896663
192	0xbdaa9d78	-0.08330816
193	0x3b60739e	0.00342486
194	0xbd8e7f7a	-0.06957908
195	0x3bb2039b	0.0054325587
196	0x3daa84da	0.08326121
197	0xbd284a3e	-0.041086428
198	0x3c169dd6	0.009192904
199	0x3bf75efb	0.0075491644
200	0x3d29c839	0.041450713
201	0xbd6aa40a	-0.057285346
202	0x3cc71f35	0.024306873
203	0x3de36946	0.11104064
204	0xbd3a7f57	-0.045531597
205	0x3da67271	0.08127297
206	0xbd52f2c4	-0.05150105
207	0xbc433ddd	-0.011916605
208	0x3def65b1	0.11689318
209	0xbd835b6a	-0.0641392
210	0xbbd100e1	-0.0063782786
211	0x3c2ba13f	0.010475456
212	0xbde95816	-0.11393754
213	0x3e0ae716	0.13564715
214	0x3b793866	0.0038028
215	0xbdb3db6f	-0.08782088
216	0x3cda19ba	0.026623596
217	0xbd806686	-0.06269555
218	0x3da1b77d	0.07896326
219	0x3d92d180	0.07168865
220	0x3e791dfe	0.24327847
221	0xbd2751e2	-0.040849574
222	0xbc0e4af7	-0.008684865
223	0x3d94975c	0.07255432
224	0x3c7fc1fe	0.015610216
225	0x3e0a7af7	0.1352347
226	0xbd326722	-0.043555386
227	0xbd819a92	-0.0632831
228	0xbca878df	-0.020565448
229	0x3b770eed	0.0037698105
230	0xbd7ef87a	-0.062248684
231	0xbcb71182	-0.022347216
232	0xbd440e25	-0.04786505
233	0xbd18eaa5	-0.03733315
234	0x3e075ee3	0.1321979
235	0xbd4d96ea	-0.05019275
236	0x3d2599a0	0.04042971
237	0x3cd13126	0.025536131
238	0x3ce43516	0.027857345
239	0xbda37a9e	-0.07982372
240	0x3db4e518	0.08832759
241	0x3e6e58d0	0.23276067
242	0xbd68a1e6	-0.056795023
243	0x3e82c566	0.25541228
244	0x3dfdacee	0.12386499
245	0xbd055778	-0.03255412
246	0xbcac0fae	-0.02100357
247	0xbafd39b7	-0.0019319569
248	0xbd92cdff	-0.07168197
249	0x3c474056	0.012161335
250	0x3d02072c	0.03174512
251	0xbd343174	-0.043992475
252	0xbd6d6566	-0.05795803
253	0xbd7dc548	-0.06195572
254	0xbd2c7935	-0.04210778
255	0x3cbaab0d	0.022786641

Linear4.weight f4 [3, 256]
0	0xbbd08de0	-0.006364569
1	0x3a2ee224	0.0006671271
2	0xbacb8e80	-0.0015530139
3	0xbcb823a8	-0.02247794
4	0x3c28946f	0.010289296
5	0x3c2b34da	0.0104496125
6	0xbd4921e2	-0.04910458
7	0x3dd63737	0.1045975
8	0xbd7ab8bd	-0.061211336
9	0x3b67b8bf	0.003535792
10	0x3ca2dcd8	0.019880697
11	0x3ba8f694	0.0051563475
12	0x3e3bc689	0.18337454
13	0xb8ab7d38	-8.177239e-05
14	0xbc9bfa26	-0.019040179
15	0x3d24a6e3	0.040198218
16	0x3e15802e	0.14599678
17	0x3d3e9254	0.046526268
18	0x3d46c18a	0.048524417
19	0x3c18daf6	0.009329548
20	0x3cdd1f82	0.026992563
21	0x3d3e24a6	0.04642167
22	0xbd34236a	-0.043979086
23	0x3d2c6d48	0.042096406
24	0x3cda3a98	0.026639268
25	0xbd4da5e1	-0.050207023
26	0x3d4ab6a4	0.049490586
27	0xbd81cc2d	-0.063377716
28	0xbd60ac5a	-0.054851867
29	0x3c0cb702	0.008588554
30	0xbc913626	-0.017726015
31	0xbd2fee21	-0.042951707
32	0x3df0b4d2	0.11753239
33	0xbd8c4004	-0.068481475
34	0xbd51f407	-0.051258113
35	0xbd3c02bb	-0.04590104
36	0x3cbccb18	0.023046061
37	0xbd8a1794	-0.067427784
38	0xbcce2604	-0.025164612
39	0x3d12412c	0.035706684
40	0x3c816202	0.015793804
41	0x3d870766	0.06593208
42	0x3d364580	0.044499874
43	0xbc94ed2e	-0.018179502
44	0x3d1cf238	0.038316935
45	0x3d190aac	0.037363693
46	0x3d222aad	0.03959148
47	0x3d0c822b	0.034303825
48	0x3cedc3c0	0.029024005
49	0xbd2010e9	-0.039078627
50	0xbc0c6849	-0.008569785
51	0x3ad20230	0.001602238
52	0xbd866641	-0.06562472
53	0xbdadb5ef	-0.08481967
54	0xbc5d61ea	-0.013512114
55	0x3c9012ad	0.01758703
56	0xbd044ea7	-0.03230157
57	0xbb81ffa9	-0.0039672446
58	0xbc41fb16	-0.011839649
59	0xbb8bb79e	-0.0042638322
60	0x3da7f9be	0.082019314
61	0xbb332a6d	-0.002733852
62	0x3d2e4a7f	0.042551514
63	0x3d3e15df	0.046407577
64	0xbdb6c4a1	-0.08924223
65	0x3bf31754	0.0074185524
66	0x3d5d5f8b	0.054046195
67	0x3ce7acdf	0.028280674
68	0xbcc1ec40	-0.023672223
69	0x3b4e68e9	0.0031495637
70	0xbdb98745	-0.09059004
71	0x3c32393b	0.010877903
72	0x3d6a7ee8	0.057249933
73	0x3d31cb9d	0.04340707
74	0x3d9033ef	0.070411555
75	0x3aa8e42d	0.0012885384
76	0x3c7473ff	0.014920234
77	0xbd94a5da	-0.07258196
78	0xbc4b7f14	-0.0124204345
79	0x3c20c496	0.009812495
80	0x3c8eaaa8	0.01741536
81	0xbc8c0c31	-0.017095657
82	0x3c5425d5	0.012948473
83	0x3b8b8f17	0.004259001
84	0x3c9a3557	0.018824263
85	0xbb98eb92	-0.004666754
86	0x3c73efb8	0.014888696
87	0xbdaaed76	-0.08346073
88	0xbcd1c67e	-0.025607344
89	0x3c409fcc	0.011756849
90	0xba8f4074	-0.0010929243
91	0xbcfa370f	-0.030543832
92	0xbd7ce6ae	-0.06174343
93	0xbb11d476	-0.002225188
94	0x3d279c23	0.040920388
95	0xbdd4f65b	-0.10398551
96	0x3ac48739	0.0014993913
97	0xbcf7cee2	-0.030250017
98	0x3afbb595	0.0019203896
99	0x3ce4ebf7	0.027944548
100	0xbda59921	-0.08085848
101	0x3b563ee6	0.00326913
102	0xbd45d5df	-0.048299666
103	0x3b4cfb29	0.0031277633
104	0xbd18236d	-0.03714316
105	0xbd66fa2d	-0.05639093
106	0x3d505101	0.0508585
107	0x3d80a9e3	0.06282403
108	0x3d769032	0.06019611
109	0x3cd74727	0.026279045
110	0xbbe46d06	-0.0069710044
111	0x3de9c8fc	0.11415288
112	0x3d02af20	0.031905293
113	0x3db9f5b3	0.090800665
114	0xbcc72d6f	-0.024313657
115	0xbd798fc1	-0.06092811
116	0x3c9c9308	0.019113079
117	0x3db22043	0.0869756
118	0x3dc2ab21	0.095052965
119	0xbd6c3d28	-0.05767551
120	0xbd488b6e	-0.048961096
121	0xbd423183	-0.0474105
122	0x3cc40768	0.023929313
123	0xbcb76a55	-0.02238957
124	0xbcbafb89	-0.02282502
125	0x3bab7ec3	0.005233617
126	0x3c84c77b	0.016208401
127	0xbd190508	-0.037358314
128	0x3be678a4	0.0070334245
129	0xbd1942d6	-0.037417255
130	0xbd02666d	-0.031835962
131	0x3d8a7963	0.06761434
132	0xbd379256	-0.04481729
133	0xbd84b397	-0.064795665
134	0xbc4ba274	-0.012428869
135	0x3dac1f0d	0.0840436
136	0xbd5fe842	-0.054664858
137	0x3d31f8f1	0.0434503
138	0x3d1edfb6	0.038787566
139	0x3a8c91ab	0.0010724565
140	0xbd87b253	-0.066258095
141	0x3d184fa5	0.03718533
142	0x3c6b4db1	0.014361785
143	0xbbf9cf33	-0.007623577
144	0xbcfd47ac	-0.030917965
145	0xbd6dacb7	-0.05802604
146	0x3c8eee3e	0.017447587
147	0xbcbe658d	-0.023241783
148	0xbc3b22c0	-0.011421859
149	0xbc453dec	-0.012038689
150	0xbc954ee5	-0.018226096
151	0xbd961249	-0.07327706
152	0x3d1d5ea0	0.03842032
153	0x3d7556b1	0.05989713
154	0xbd20d286	-0.03926327
155	0xbd4cb725	-0.049979348
156	0xbe3d9561	-0.18514015
157	0xbc9ada99	-0.018903064
158	0x3d0c6ac6	0.034281515
159	0xbd3b75c1	-0.045766596
160	0x3d13efa1	0.0361172
161	0x3d8f34b9	0.06992478
162	0x3b946aa0	0.0045293123
163	0xbd02478e	-0.03180652
164	0xbd800b37	-0.06252139
165	0x3b95af11	0.0045679887
166	0xbd9a7a4d	-0.07542858
167	0xbcbc4941	-0.022984149
168	0xbd1bdd92	-0.038053103
169	0x3e00bf99	0.12573089
170	0xbd870880	-0.06593418
171	0x3b8ccf17	0.004297148
172	0xbdb80944	-0.08986142
173	0x3b90a366	0.00441401
174	0xbc3b2908	-0.011423357
175	0x3e03f2f5	0.1288565
176	0x3b291ca2	0.002580442
177	0x3d0ddedd	0.034636367
178	0xbd5725ad	-0.052526165
179	0x3997698a	0.00028879597
180	0xbccb6798	-0.02482967
181	0x3a69e450	0.0008922266
182	0xbc90d4da	-0.01767962
183	0xbd689ac6	-0.05678823
184	0x3e517034	0.20452958
185	0xbc0bcebb	-0.008533175
186	0x3c66c08e	0.014083995
187	0xbc9d70a8	-0.019218758
188	0xbcff40f5	-0.031158904
189	0xbbf9ff25	-0.0076292926
190	0x3cc09a5c	0.023511104
191	0xbe0eb526	-0.1393629
192	0x3c53979b	0.0129145635
193	0x3d5c5179	0.053788636
194	0xbcdada4a	-0.026715416
195	0x3d78cfa7	0.060744908
196	0xbd82ff67	-0.063963704
197	0x3d982348	0.07428604
198	0xbdd52a86	-0.10408501
199	0xbd60f42c	-0.05492036
200	0xbd06a95f	-0.03287637
201	0x3b6e448e	0.003635678
202	0x3d1125f2	0.035436578
203	0x3e1b470b	0.1516382
204	0xbdbdcd10	-0.09267628
205	0xbd8908ae	-0.06691109
206	0x3ca4b494	0.020105638
207	0xbdb62d30	-0.088953376
208	0x3d9f23a9	0.077704735
209	0x3bf8eb01	0.007596374
210	0xbd3e6f87	-0.04649308
211	0x3c78667b	0.015161152
212	0xbe4d1048	-0.20025742
213	0x3cf4c702	0.02988005
214	0x3b151d4c	0.0022753058
215	0xbbdc692b	-0.006726404
216	0xbd3c34d7	-0.04594883
217	0x3cde4958	0.027134582
218	0x3e329c10	0.17442346
219	0xbd274200	-0.040834427
220	0x3db08483	0.086190246
221	0x3c2df1aa	0.010616699
222	0xbd908c8e	-0.07058059
223	0xbd8d4460	-0.06897807
224	0x3d78c1e2	0.060731776
225	0xbda24d1f	-0.07924866
226	0xbd80a5ea	-0.062816456
227	0xbd0ea2a9	-0.034823094
228	0xbc68c23c	-0.014206465
229	0x3d7236fa	0.05913446
230	0x3d975d5b	0.07390853
231	0x3d11bf66	0.035582922
232	0x3d326349	0.043551717
233	0xbcc7aa17	-0.024373097
234	0x3e27b414	0.16377288
235	0x3cb0230f	0.021501092
236	0xbb317bd4	-0.0027081864
237	0x3d4f43bd	0.05060171
238	0xbb93585d	-0.0044966177
239	0xbc087aaf	-0.008330031
240	0xbd430e87	-0.047621276
241	0x3d9f6463	0.07782819
242	0x3d9cbc36	0.07653086
243	0x3e0dfd07	0.13866054
244	0xbd10c271	-0.035341684
245	0x3ac9d0ba	0.0015397288
246	0xbc93c4f1	-0.018038245
247	0x3d64af5a	0.05583129
248	0xbd57a134	-0.05264397
249	0xbb9754e8	-0.004618276
250	0x3c30e6b4	0.010797191
251	0xbd97c6d7	-0.074109726
252	0xbe229b99	-0.15879668
253	0x3bd9b729	0.006644149
254	0xbc926c95	-0.017874042
255	0xb9854f51	-0.00025426832

Linear4.bias f4 [3]
0	0x3e40519b	0.1878113
1	0xbd2dad9a	-0.042401887
2	0xbd57b82c	-0.052665874
