PythonSnake/PythonSnakeIA/model/model.pth (torch, 9536 bytes, 4 tensors)

Linear1.weight f4 [128, 11]
0	0xbede44b3	-0.43411788
1	0xbd558fb1	-0.052138988
2	0xbdcdbff5	-0.100463785
3	0x3eb7333c	0.35781276
4	0xbdbf3885	-0.09336952
5	0xbe06923b	-0.1314172
6	0x3e199c1c	0.15000957
7	0x3e7ba90d	0.24576207
8	0x3ccb0f84	0.024787672
9	0x3db62acd	0.08894882
10	0xbe866320	-0.262475
11	0x3c63a1f8	0.013893597
12	0xbe0fdd7b	-0.14049332
13	0x3e33ddbb	0.17565052
14	0x3e1877d6	0.14889464
15	0x3e24dc39	0.16099633
16	0xbe6b88ad	-0.23001356
17	0x3d36cb9d	0.044627775
18	0xbdb4323e	-0.087986454
19	0xbda9dd0d	-0.08294115
20	0x3e112446	0.14173993
21	0xbda575de	-0.08079122
22	0x3db00663	0.08594968
23	0xbe5650c2	-0.20929244
24	0x3e4d2e60	0.20037222
25	0xbe703163	-0.2345634
26	0x3c6c6fcf	0.014430954
27	0x3e1edfac	0.15515012
28	0xbdfe3acc	-0.12413558
29	0xbe0fa4f9	-0.14027776
30	0xbd18829f	-0.037233945
31	0xbd84424e	-0.06457959
32	0x3dac1cae	0.08403908
33	0xbc84cd9f	-0.016211329
34	0xbead5992	-0.338574
35	0x3e1811f3	0.14850597
36	0x3c836f24	0.016044207
37	0xbe5fbc74	-0.21849233
38	0xbe28be9b	-0.1647896
39	0xbe2d0c8c	-0.16899318
40	0x3e0ba950	0.13638806
41	0xbd89a1fe	-0.06720351
42	0xbe985f80	-0.2976036
43	0xbe9c4411	-0.3052068
44	0xbc01c7d0	-0.007921174
45	0xbd8130fa	-0.0630817
46	0x3e6641da	0.22486058
47	0x3db244d1	0.08704532
48	0x3e3a7288	0.18207753
49	0xbb08645d	-0.0020811774
50	0xbeba0726	-0.3633358
51	0x3b74ad4a	0.0037334734
52	0xbd7ff9ea	-0.062494196
53	0x3e08f02a	0.13372865
54	0x3e8d95d0	0.2765336
55	0x3e2a443c	0.16627592
56	0xbe7a6607	-0.24452983
57	0x3b2ff000	0.0026845932
58	0xbe87b565	-0.2650558
59	0x3e22a449	0.15882982
60	0x3eb66cea	0.3562997
61	0x3d33bf74	0.043883756
62	0xbe3f9519	-0.1870922
63	0x3e21a252	0.15784577
64	0xbe233982	-0.15939906
65	0xbea41426	-0.32046622
66	0x3cba3a3a	0.022732843
67	0xbe8e6257	-0.27809402
68	0x3e8f15ba	0.27946264
69	0xbe50ae15	-0.20378907
70	0xbe9229a7	-0.28547403
71	0xbe152ab0	-0.14567065
72	0x3dbf31eb	0.09335693
73	0xbed434b4	-0.4144646
74	0xbe89380e	-0.2680058
75	0xbe40eccc	-0.18840331
76	0x3dd857d9	0.105636306
77	0xbd65472f	-0.05597609
78	0xbe4f07f8	-0.20217884
79	0x3e633ae4	0.22190434
80	0xbe68445f	-0.22682332
81	0x3d9c999d	0.07646487
82	0x3eaa7c08	0.33297753
83	0xbe340fc2	-0.17584136
84	0xbe34701c	-0.17620891
85	0x3e64e021	0.22351123
86	0xbe830eff	-0.2559738
87	0xbc4fd668	-0.012685396
88	0xbd9a6fa6	-0.075408265
89	0xbd4471d4	-0.047960117
90	0xbe1fde91	-0.15612246
91	0xbe939e66	-0.28831786
92	0xbeaed976	-0.34150285
93	0xbe5dd752	-0.2166417
94	0x3de4d673	0.111737154
95	0x3e98c789	0.29839733
96	0x3e9b984c	0.3038963
97	0xbed96729	-0.42461517
98	0xbd717e70	-0.05895847
99	0xbe41ba15	-0.18918641
100	0x3dd5f42d	0.104469635
101	0x3e356d6c	0.17717522
102	0x3d5e4991	0.054269377
103	0xbe93f665	-0.28898922
104	0xbdefe3f1	-0.11713398
105	0xbe942f06	-0.28942126
106	0xbe2296fb	-0.15877907
107	0x3e626894	0.22110206
108	0x3dca8144	0.09887937
109	0x3e87d744	0.26531422
110	0xbdbaac88	-0.09114939
111	0x3d4d1df3	0.05007739
112	0xbe84d114	-0.25940764
113	0x3d97e0ef	0.074159496
114	0xbead54d4	-0.3385378
115	0x3b76c514	0.0037654089
116	0x3ea58219	0.3232582
117	0xbcf752c3	-0.030190831
118	0xbf1e63d4	-0.61871076
119	0x3d9b64a7	0.07587557
120	0x3ecae779	0.39629725
121	0xbe098b09	-0.13431944
122	0x3d158364	0.036502257
123	0xbd007240	-0.031358957
124	0x3e9db028	0.3079846
125	0xbd297a32	-0.0413763
126	0x3e81be81	0.25340655
127	0xbe306348	-0.17225373
128	0x3e45058f	0.19240402
129	0xbe0f7657	-0.14009987
130	0x3b9160ed	0.0044366033
131	0x3d0fdf15	0.035124857
132	0xbdb99366	-0.09061317
133	0x3db2082c	0.08692965
134	0x3dffb5de	0.1248586
135	0x3dde8a6e	0.10866247
136	0xbdf2d603	-0.11857226
137	0x3e56f01e	0.20990035
138	0xbd9e503d	-0.07730148
139	0xbe5f3401	-0.21797182
140	0x3ddfc66a	0.10926516
141	0x3e546697	0.2074226
142	0xbe0338bb	-0.1281461
143	0x3db736e5	0.08946017
144	0xbe51a7c8	-0.2047416
145	0xbe6ca13a	-0.23108378
146	0xbcd47704	-0.025935657
147	0x3e3ba389	0.18324102
148	0xbe97cd87	-0.29648992
149	0x3d67dd4e	0.056607537
150	0x3c47c253	0.012192327
151	0xbe3cac82	-0.18425182
152	0xbda8b9d6	-0.082385704
153	0x3e6a6a54	0.22892123
154	0xbe29ee40	-0.16594791
155	0x3dd4abe7	0.1038435
156	0x3d80502c	0.062652916
157	0x3ea03dee	0.3129725
158	0x3e9431a7	0.28944132
159	0xbd440785	-0.047858734
160	0xbdd51ed5	-0.10406271
161	0xbebd3dad	-0.36961117
162	0xbec89ae1	-0.39180663
163	0xbca66df9	-0.02031611
164	0x3de77605	0.11301807
165	0x3dbb8bf7	0.091575556
166	0xbdeecaa1	-0.11659742
167	0x3e0f78d8	0.14010942
168	0x3e1fdebb	0.15612309
169	0xbc8cc667	-0.01718445
170	0xbe1f3e89	-0.15551199
171	0xbe5d87a1	-0.2163377
172	0xbe7b8e86	-0.24566087
173	0xbe55bb58	-0.20872247
174	0xbe02c6d4	-0.1277116
175	0xbe61c063	-0.22046046
176	0x3eb21893	0.34784374
177	0x3e6bac84	0.23015028
178	0x3e07532e	0.13215324
179	0x3dac76a1	0.08421064
180	0xbdae48ed	-0.08510003
181	0xbe114834	-0.141877
182	0x3d25e7cf	0.040504273
183	0xbafe874d	-0.0019418985
184	0xbe558786	-0.2085248
185	0x3d7964ab	0.06088702
186	0x3e899aaf	0.26875827
187	0xbeaa7d72	-0.33298832
188	0xbee13362	-0.43984514
189	0x3e0061a6	0.1253725
190	0x3e3dab15	0.18522294
191	0x3ddc9aaa	0.10771687
192	0xbceb2d6e	-0.028708186
193	0xbe17ef12	-0.14837292
194	0x3e026500	0.12733841
195	0x3db16a78	0.086628854
196	0x3d7ed460	0.062214255
197	0x3cb2c4f3	0.021822428
198	0xbdd2fb38	-0.103018224
199	0x3e18a9a1	0.14908458
200	0xbdf3cf12	-0.1190473
201	0xbc67b91c	-0.014143255
202	0xbe5d29ac	-0.21597928
203	0x3d8c1d97	0.06841581
204	0xbdf56887	-0.11982828
205	0xbda7644d	-0.08173428
206	0xbda43a7e	-0.08018969
207	0xbe7c998e	-0.24667951
208	0x3e2c5842	0.16830543
209	0xbe0f9f6d	-0.1402566
210	0x3d28acc8	0.041180402
211	0xbd689995	-0.056787092
212	0x3e95e55a	0.29276544
213	0xbe212acd	-0.15738983
214	0x3dced768	0.10099679
215	0x3e7e269c	0.24819416
216	0x3e32ffba	0.17480364
217	0x3d0cb9eb	0.034356993
218	0x3e0766fd	0.1322288
219	0xbec5d49e	-0.38638777
220	0xbe93f559	-0.28898123
221	0x3e84f607	0.25968954
222	0x3dbed827	0.093185715
223	0x3e80b798	0.2514007
224	0x3e1a0a01	0.15042879
225	0x3e5bac99	0.2145256
226	0x3eb432f3	0.3519512
227	0x3eca12ad	0.39467373
228	0xbd116898	-0.03550014
229	0x3cde145a	0.027109314
230	0x3c0ca522	0.008584293
231	0xbe83cea5	-0.25743595
232	0x3de234c0	0.110452175
233	0x3e11426d	0.14185496
234	0xbe04d811	-0.12973048
235	0x3e94d7a0	0.2907076
236	0xbe6f03c0	-0.23341274
237	0x3e1b50bd	0.15167518
238	0xbe978b4b	-0.2959846
239	0xbe609fc4	-0.21935946
240	0xbddf61d1	-0.10907329
241	0xbe64690b	-0.22305696
242	0xbd541434	-0.05177708
243	0x3e577178	0.21039379
244	0x3e074c25	0.1321264
245	0x3e1242c0	0.14283276
246	0xbeca7454	-0.39541876
247	0x3e533d0f	0.20628761
248	0x3e446b88	0.19181645
249	0xbe0c5a46	-0.13706312
250	0xbe77b708	-0.24190915
251	0x3e013116	0.12616381
252	0xbe3cd101	-0.18439104
253	0xbdf8de6b	-0.12151798
254	0x3d57c0cb	0.052674096
255	0xbe7083c1	-0.2348776

Linear1.bias f4 [128]
0	0xbe206c29	-0.1566626
1	0xbde1a04b	-0.110169016
2	0xbe1d3e60	-0.15355825
3	0x3b9fafa0	0.004873231
4	0xbddd4c17	-0.108055286
5	0xbeb68f76	-0.35656327
6	0x3e13a671	0.14418961
7	0x3c0a429c	0.0084387325
8	0x3b6df28f	0.0036307906
9	0xbe30aba6	-0.17252979
10	0xbdd4df49	-0.10394151
11	0xbe58f9c1	-0.21189024
12	0xbe955159	-0.29163626
13	0xbe2de2c1	-0.16981031
14	0xbd9d9778	-0.07694906
15	0x3e0cf577	0.13765512
16	0xbd404a26	-0.046945713
17	0x3e4c3734	0.19942933
18	0x3d9082c6	0.07056193
19	0x3ec0b842	0.37640578
20	0x3e6e305b	0.23260634
21	0xbd946509	-0.072458334
22	0x3d94168b	0.07230862
23	0xbe9bfa8d	-0.30464593
24	0x3d7f825c	0.06238018
25	0xbdf9939d	-0.12186358
26	0x3cd7bb8d	0.026334548
27	0x3ea143fd	0.31497183
28	0x3e8919c1	0.2677746
29	0x3e173412	0.14765957
30	0x3d266aad	0.040629078
31	0xbec71ed9	-0.38890722
32	0xbcafd951	-0.02146593
33	0xbed0ead1	-0.4080415
34	0x3ea2bc6c	0.3178438
35	0x3d5d2210	0.053987563
36	0xbe236188	-0.15955174
37	0xbe416df6	-0.18889603
38	0x3d39fe3f	0.045408484
39	0xbd3b5e75	-0.045744378
40	0x3ee408d2	0.4453798
41	0x3e3a123d	0.1817102
42	0xbdc6376d	-0.096785404
43	0xbe7d965e	-0.24764392
44	0x3b1d9d22	0.0024049957
45	0xbdc04e02	-0.09389879
46	0xbe0a6ba9	-0.13517632
47	0xbe11863d	-0.14211364
48	0x3ecb4ea6	0.39708441
49	0x3cf08326	0.029359411
50	0xbe8332e3	-0.2562476
51	0xbdd788ec	-0.10524163
52	0xbbc88086	-0.006118837
53	0xbe7288b6	-0.23684964
54	0xbda32002	-0.079650894
55	0xbe2f7e63	-0.17138056
56	0xbe2ff07e	-0.17181584
57	0x3c03b7f9	0.008039468
58	0xbe7db9ab	-0.24777858
59	0x3db7221e	0.08942054
60	0x3dfd515f	0.12369036
61	0x3d573e0a	0.0525494
62	0x3d0fac74	0.035076573
63	0xbe728290	-0.23682618
64	0xbd88d046	-0.0668035
65	0xbe0d65f8	-0.13808429
66	0xbd124753	-0.03571255
67	0xbe8202a0	-0.25392628
68	0xbe97a9a6	-0.2962162
69	0xbe7c85fa	-0.24660483
70	0xbdd3993f	-0.10331964
71	0x3e5e3422	0.21699575
72	0x3dda2d2b	0.10653146
73	0x3d003151	0.03129703
74	0xbe3bc1d7	-0.18335663
75	0xbd8b8d2f	-0.06814038
76	0xbeb8d1a3	-0.3609744
77	0xbe86e5d5	-0.26347223
78	0x3db3a237	0.087711744
79	0x3af33cfc	0.0018557603
80	0x3ef0f771	0.47063783
81	0xbd31a185	-0.043366928
82	0xbe852971	-0.2600818
83	0xbdc39c5a	-0.09551306
84	0x3c75bf15	0.014999171
85	0x3e2391c4	0.15973574
86	0xbd2c4d52	-0.042065926
87	0xbda92805	-0.08259586
88	0xbdd38470	-0.10327995
89	0x3db323e8	0.08747083
90	0xbd7ef86f	-0.062248643
91	0xbe6aca12	-0.22928646
92	0xbee0f6d5	-0.43938318
93	0xbd9fa098	-0.07794303
94	0xbdab9975	-0.08378879
95	0xbe84506d	-0.2584261
96	0xbcaadfad	-0.02085861
97	0xbdc18049	-0.094482966
98	0xbe6aa7a7	-0.22915517
99	0xbcf4219c	-0.029801182
100	0xbe646881	-0.2230549
101	0xbdb9064e	-0.09034406
102	0xbcaf763c	-0.021418683
103	0x3ddca321	0.10773302
104	0xbddc64f4	-0.10761443
105	0x3e7a230e	0.24427435
106	0xbe9d9ca2	-0.30783564
107	0x3e50766d	0.20357676
108	0x3ef146a9	0.47124222
109	0xbeaa345b	-0.3324307
110	0xbdf207ea	-0.11817916
111	0x3ed11d7e	0.40842813
112	0xbe27966f	-0.1636598
113	0x3ee6ef39	0.45104387
114	0x3dad49bd	0.0846133
115	0xbd2a98a8	-0.04164949
116	0xbe8cc4b5	-0.27493826
117	0x3d2ca811	0.042152468
118	0x3e60e365	0.21961744
119	0xbe756b86	-0.23966798
120	0xbe9778d9	-0.29584387
121	0xbcf61af4	-0.03004215
122	0xbe5a52cd	-0.21320648
123	0xbd54e903	-0.05198003
124	0xbe69b56e	-0.22823116
125	0xbe4e6a4d	-0.20157738
126	0x3ec99298	0.39369655
127	0x3e9f31bc	0.31092632

Linear2.weight f4 [3, 128]
0	0x3e151008	0.14556897
1	0xbba786dc	-0.005112512
2	0xbc62a5cf	-0.013833477
3	0x3d6be6a5	0.057593007
4	0xbd926306	-0.071477935
5	0x39e1313c	0.00042952027
6	0x3e441a1a	0.19150582
7	0x3c90f118	0.017693087
8	0xbee10309	-0.43947628
9	0xbd434b16	-0.04767903
10	0x3e5bd484	0.21467787
11	0x3e787025	0.2426153
12	0x3b70b178	0.0036726873
13	0xbe1eb024	-0.1549688
14	0xbe734f5f	-0.23760746
15	0xbd41ca03	-0.047311794
16	0x3be021a8	0.0068399496
17	0x3ba2d202	0.0049688825
18	0x3e32efb2	0.17474249
19	0xbb984fdd	-0.0046481923
20	0xbd8eb2f6	-0.06967728
21	0x3c8b6c4b	0.017019412
22	0x3e03da4f	0.12876247
23	0xbcadac50	-0.021200329
24	0xbc33449e	-0.010941653
25	0x3e9ca1d4	0.30592215
26	0x3e591692	0.21200016
27	0x3ca29c55	0.019849936
28	0x3ca1e129	0.019760685
29	0xb96d6e13	-0.00022643087
30	0x3cb02ab8	0.021504745
31	0x3d1c1dcf	0.038114365
32	0x3b400f32	0.0029305932
33	0xbcb1bcdb	-0.021696499
34	0xbc5747ea	-0.013139704
35	0x3cc5e5bb	0.024157396
36	0xbb15ab25	-0.0022837606
37	0xbddf32ee	-0.10898386
38	0xbdb34fe6	-0.08755474
39	0x3e1d3fa6	0.15356311
40	0xbd8c31c9	-0.06845433
41	0x3c80e8dc	0.015736036
42	0xbb037481	-0.0020058455
43	0x3d416c86	0.047222637
44	0xbe974b29	-0.2954953
45	0x3e15bdcc	0.14623183
46	0x3df8a400	0.121406555
47	0xbd7ec2cf	-0.062197503
48	0xbc7188ca	-0.014742086
49	0xbd85d655	-0.06535021
50	0xbc252b9e	-0.0100812
51	0xbcae6254	-0.02128712
52	0xbda678a1	-0.08128477
53	0xbd1b23cb	-0.03787593
54	0x3e3aca4e	0.18241236
55	0xbe861b5b	-0.26192746
56	0x3e2babf0	0.16764808
57	0xbab4e07c	-0.0013799812
58	0x3cb50487	0.022096885
59	0x3c7f832c	0.015595239
60	0x3e20fd10	0.15721536
61	0x3dcd6f18	0.10030955
62	0x3d652671	0.055944864
63	0x3b923b36	0.004462625
64	0x3c1d0cec	0.0095856
65	0x3e184565	0.14870222
66	0x3d4a1f17	0.049346056
67	0x3d304386	0.043033145
68	0x3d0ce852	0.034401245
69	0x3c015050	0.007892683
70	0x3dee3e41	0.11632968
71	0x3dd1edc2	0.10250427
72	0xbc466ba7	-0.012110627
73	0x3deeb02a	0.116546944
74	0xbd23ddb6	-0.040006362
75	0x3cebfc24	0.028806753
76	0x3d921f07	0.07134824
77	0xbc2a0e00	-0.010379314
78	0x3ca8af86	0.020591509
79	0xbd4c6ef7	-0.04991051
80	0xbc11e5ac	-0.008904856
81	0xbb276c9a	-0.002554691
82	0xbc17c870	-0.009264097
83	0xbdec5c21	-0.1154101
84	0x3d85d478	0.06534666
85	0x3c8d1ce7	0.017225696
86	0xbccf78ba	-0.025326122
87	0x3da63c46	0.08116965
88	0xba0751f2	-0.0005162052
89	0x3e36afdf	0.17840527
90	0x3e3600c0	0.17773724
91	0x3e0ef26d	0.13959666
92	0xbcb957b3	-0.022624826
93	0x3e39047a	0.18068114
94	0x3c6c5391	0.014424221
95	0x3dc7aef5	0.09750167
96	0xbc879594	-0.016550817
97	0xbe3bff3b	-0.18359081
98	0x3e153821	0.14572193
99	0xbcd4174b	-0.025890013
100	0xbdc60238	-0.09668392
101	0xbd89d672	-0.06730355
102	0x3b82ee8b	0.0039957217
103	0xbd3b1376	-0.045672856
104	0xbcc3616c	-0.023850165
105	0xbd13a646	-0.036047243
106	0xbdacee8f	-0.08443939
107	0x3e56f9e2	0.2099376
108	0xbd776833	-0.060402106
109	0x3daeee92	0.085415974
110	0x3d3855bc	0.045003638
111	0xbd7d6e7e	-0.06187295
112	0xbd89326f	-0.066990726
113	0xbdf1e5dc	-0.1181142
114	0xbd834a7c	-0.06410691
115	0x3b1d1ab6	0.002397222
116	0xbc13652e	-0.008996291
117	0x3d8199d6	0.0632817
118	0xbdbcc19b	-0.09216615
119	0xbc0820ac	-0.008308571
120	0xbd238caa	-0.03992907
121	0x3e8a68ab	0.2703298
122	0xbcc1c868	-0.023655131
123	0x3e49ed69	0.19719471
124	0x3e1a9566	0.15096053
125	0xbd4c1ed3	-0.049834084
126	0x3e32ed4a	0.17473331
127	0xbd9f3c2f	-0.07775151
128	0xbc59ff11	-0.0133054415
129	0xbcd29003	-0.025703436
130	0x3d9a1a65	0.075245656
131	0xbcee099e	-0.02905732
132	0xbda342d8	-0.07971734
133	0x3e066b6d	0.13126917
134	0xbda0d867	-0.078537755
135	0xbd73f4c2	-0.05955959
136	0xbdb9fca2	-0.09081389
137	0x3da0e2e0	0.07855773
138	0x3d0ee318	0.034884542
139	0x3e64a036	0.2232674
140	0xbde2cd64	-0.110743314
141	0xbd949270	-0.07254493
142	0x3cd6f136	0.026238065
143	0xbd6274b1	-0.055287067
144	0x3d2864d2	0.041111775
145	0xbcd7e51e	-0.026354369
146	0xbda46644	-0.08027318
147	0xbdb7e0c5	-0.08978418
148	0xbe0b49a4	-0.1360231
149	0xbc977228	-0.018487051
150	0x3c962336	0.018327337
151	0xbd8ee666	-0.06977539
152	0x3cb3f0aa	0.021965344
153	0xbc315b52	-0.010824995
154	0x3db397c7	0.087691836
155	0xbe0b23c9	-0.1358787
156	0xbe24cb43	-0.16093163
157	0xbc9a427a	-0.018830527
158	0x3ccc6b77	0.024953587
159	0xbe1dcf33	-0.15411071
160	0x3d8599f0	0.06523502
161	0xbdcf1dcf	-0.101131074
162	0xbde56cc8	-0.11202389
163	0xbdce15fb	-0.10062786
164	0xbd018383	-0.03161956
165	0x3d51bbc4	0.051204458
166	0x3ad88b58	0.001652102
167	0xbc38674c	-0.011255097
168	0xbe38269a	-0.17983475
169	0xbe023032	-0.12713698
170	0xbdcefdd0	-0.10107005
171	0x3cd64469	0.026155667
172	0xbd302b01	-0.04300976
173	0x3ca1d9af	0.01975712
174	0x3e15ae63	0.14617305
175	0x3d03b71d	0.032157052
176	0xbd48710d	-0.04893594
177	0xbcdf36fa	-0.027247895
178	0xbde5a86b	-0.11213764
179	0xbd00b1cc	-0.03141956
180	0xbda3519b	-0.079745494
181	0x3e81ec17	0.25375435
182	0x3df51463	0.11966779
183	0x3dc11559	0.094279
184	0x3c909646	0.017649781
185	0x3d53e4c0	0.051731825
186	0x3df72e81	0.12069417
187	0xbc94a7a4	-0.018146344
188	0x3e11270c	0.14175051
189	0xbd4b98cb	-0.04970626
190	0xbd9c5900	-0.07634163
191	0x3d34b154	0.044114426
192	0x3d2ac11a	0.041688062
193	0x3df472b8	0.11935943
194	0xbd1fb0d4	-0.038986996
195	0x3e7b83ca	0.24561992
196	0x3d51171e	0.051047437
197	0xbce88697	-0.02838449
198	0xbe390d6a	-0.18071523
199	0x3da77330	0.08176267
200	0x3b94c13c	0.004539637
201	0x3e240133	0.16016082
202	0xbd6e79b0	-0.05822152
203	0xbc3f72c3	-0.011685076
204	0xbc0b56d8	-0.008504592
205	0xbe218602	-0.15773776
206	0xbd1641d2	-0.036683865
207	0x3d8a9e46	0.067684695
208	0xbe278b02	-0.16361621
209	0x3c74d48d	0.014943254
210	0x3ba484f9	0.0050207344
211	0x3e184d90	0.14873338
212	0xbe3c856b	-0.1841027
213	0xbe0d1023	-0.13775687
214	0x3c42dfd6	0.011894187
215	0x3d148d94	0.036267832
216	0xbd534f29	-0.051589165
217	0xbd2c2ae2	-0.042033084
218	0x3e11248e	0.14174101
219	0x3d2078f8	0.039177865
220	0x3a5c2309	0.00083975546
221	0x3d11d6b7	0.03560516
222	0xbdb97d52	-0.09057106
223	0x3c10a268	0.008827783
224	0xbe267e8e	-0.16259214
225	0xbbefd7bd	-0.007319419
226	0x3cd5cef2	0.026099656
227	0xbdc03a0a	-0.0938607
228	0xbd063795	-0.03276785
229	0xbd2e39c4	-0.04253556
230	0xbd968b1a	-0.0735075
231	0xba94209b	-0.0011301221
232	0xbd46c7ea	-0.048530497
233	0xbc7f95e5	-0.0155997025
234	0x3e0808ca	0.13284603
235	0x3d8c245d	0.06842873
236	0xbe26e90b	-0.16299836
237	0xbd502ca3	-0.05082382
238	0x3e4604f6	0.1933783
239	0xbe2f2470	-0.17103744
240	0xbd8bdd04	-0.06829265
241	0xbe0667dd	-0.13125558
242	0xbe3c47e2	-0.18386796
243	0xbc130d00	-0.008975267
244	0xbc3e3055	-0.011608203
245	0xbbb557ef	-0.005534164
246	0xbc497751	-0.012296514
247	0x3dba8ba5	0.09108666
248	0xbd149c63	-0.036281954
249	0x3ce82ad6	0.028340738
250	0x3d4e68c4	0.05039288
251	0x3e26aa40	0.16275883
252	0x3e2498a4	0.16073853
253	0xbe23745d	-0.15962358
254	0xbc803459	-0.015649961
255	0xbc0730f8	-0.008251421

Linear2.bias f4 [3]
0	0x3c96b015	0.01839451
1	0xbe03c826	-0.1286932
2	0xbdfd4cab	-0.12368139
